node {
  name: "string_to_index/hash_table"
  op: "HashTableV2"
  attr {
    key: "_output_shapes"
    value {
      list {
        shape {
        }
      }
    }
  }
  attr {
    key: "container"
    value {
      s: "train"
    }
  }
  attr {
    key: "key_dtype"
    value {
      type: DT_STRING
    }
  }
  attr {
    key: "shared_name"
    value {
      s: "hash_table_./tmp/wmt16/vocab.bpe.32000.de_-2_-1"
    }
  }
  attr {
    key: "use_node_name_sharing"
    value {
      b: false
    }
  }
  attr {
    key: "value_dtype"
    value {
      type: DT_INT64
    }
  }
}
node {
  name: "string_to_index/hash_table/Const"
  op: "Const"
  attr {
    key: "_output_shapes"
    value {
      list {
        shape {
        }
      }
    }
  }
  attr {
    key: "dtype"
    value {
      type: DT_INT64
    }
  }
  attr {
    key: "value"
    value {
      tensor {
        dtype: DT_INT64
        tensor_shape {
        }
        int64_val: 0
      }
    }
  }
}
node {
  name: "string_to_index/hash_table/table_init/asset_filepath"
  op: "Const"
  attr {
    key: "_output_shapes"
    value {
      list {
        shape {
        }
      }
    }
  }
  attr {
    key: "dtype"
    value {
      type: DT_STRING
    }
  }
  attr {
    key: "value"
    value {
      tensor {
        dtype: DT_STRING
        tensor_shape {
        }
        string_val: "./tmp/wmt16/vocab.bpe.32000.de"
      }
    }
  }
}
node {
  name: "string_to_index/hash_table/table_init"
  op: "InitializeTableFromTextFileV2"
  input: "string_to_index/hash_table"
  input: "string_to_index/hash_table/table_init/asset_filepath"
  attr {
    key: "delimiter"
    value {
      s: "\t"
    }
  }
  attr {
    key: "key_index"
    value {
      i: -2
    }
  }
  attr {
    key: "value_index"
    value {
      i: -1
    }
  }
  attr {
    key: "vocab_size"
    value {
      i: -1
    }
  }
}
node {
  name: "string_to_index_1/hash_table"
  op: "HashTableV2"
  attr {
    key: "_output_shapes"
    value {
      list {
        shape {
        }
      }
    }
  }
  attr {
    key: "container"
    value {
      s: "train"
    }
  }
  attr {
    key: "key_dtype"
    value {
      type: DT_STRING
    }
  }
  attr {
    key: "shared_name"
    value {
      s: "hash_table_./tmp/wmt16/vocab.bpe.32000.en_-2_-1"
    }
  }
  attr {
    key: "use_node_name_sharing"
    value {
      b: false
    }
  }
  attr {
    key: "value_dtype"
    value {
      type: DT_INT64
    }
  }
}
node {
  name: "string_to_index_1/hash_table/Const"
  op: "Const"
  attr {
    key: "_output_shapes"
    value {
      list {
        shape {
        }
      }
    }
  }
  attr {
    key: "dtype"
    value {
      type: DT_INT64
    }
  }
  attr {
    key: "value"
    value {
      tensor {
        dtype: DT_INT64
        tensor_shape {
        }
        int64_val: 0
      }
    }
  }
}
node {
  name: "string_to_index_1/hash_table/table_init/asset_filepath"
  op: "Const"
  attr {
    key: "_output_shapes"
    value {
      list {
        shape {
        }
      }
    }
  }
  attr {
    key: "dtype"
    value {
      type: DT_STRING
    }
  }
  attr {
    key: "value"
    value {
      tensor {
        dtype: DT_STRING
        tensor_shape {
        }
        string_val: "./tmp/wmt16/vocab.bpe.32000.en"
      }
    }
  }
}
node {
  name: "string_to_index_1/hash_table/table_init"
  op: "InitializeTableFromTextFileV2"
  input: "string_to_index_1/hash_table"
  input: "string_to_index_1/hash_table/table_init/asset_filepath"
  attr {
    key: "delimiter"
    value {
      s: "\t"
    }
  }
  attr {
    key: "key_index"
    value {
      i: -2
    }
  }
  attr {
    key: "value_index"
    value {
      i: -1
    }
  }
  attr {
    key: "vocab_size"
    value {
      i: -1
    }
  }
}
node {
  name: "filenames"
  op: "Const"
  attr {
    key: "_output_shapes"
    value {
      list {
        shape {
        }
      }
    }
  }
  attr {
    key: "dtype"
    value {
      type: DT_STRING
    }
  }
  attr {
    key: "value"
    value {
      tensor {
        dtype: DT_STRING
        tensor_shape {
        }
        string_val: "./tmp/wmt16/train.tok.clean.bpe.32000.de"
      }
    }
  }
}
node {
  name: "compression_type"
  op: "Const"
  attr {
    key: "_output_shapes"
    value {
      list {
        shape {
        }
      }
    }
  }
  attr {
    key: "dtype"
    value {
      type: DT_STRING
    }
  }
  attr {
    key: "value"
    value {
      tensor {
        dtype: DT_STRING
        tensor_shape {
        }
        string_val: ""
      }
    }
  }
}
node {
  name: "buffer_size"
  op: "Const"
  attr {
    key: "_output_shapes"
    value {
      list {
        shape {
        }
      }
    }
  }
  attr {
    key: "dtype"
    value {
      type: DT_INT64
    }
  }
  attr {
    key: "value"
    value {
      tensor {
        dtype: DT_INT64
        tensor_shape {
        }
        int64_val: 262144
      }
    }
  }
}
node {
  name: "filenames_1"
  op: "Const"
  attr {
    key: "_output_shapes"
    value {
      list {
        shape {
        }
      }
    }
  }
  attr {
    key: "dtype"
    value {
      type: DT_STRING
    }
  }
  attr {
    key: "value"
    value {
      tensor {
        dtype: DT_STRING
        tensor_shape {
        }
        string_val: "./tmp/wmt16/train.tok.clean.bpe.32000.en"
      }
    }
  }
}
node {
  name: "compression_type_1"
  op: "Const"
  attr {
    key: "_output_shapes"
    value {
      list {
        shape {
        }
      }
    }
  }
  attr {
    key: "dtype"
    value {
      type: DT_STRING
    }
  }
  attr {
    key: "value"
    value {
      tensor {
        dtype: DT_STRING
        tensor_shape {
        }
        string_val: ""
      }
    }
  }
}
node {
  name: "buffer_size_1"
  op: "Const"
  attr {
    key: "_output_shapes"
    value {
      list {
        shape {
        }
      }
    }
  }
  attr {
    key: "dtype"
    value {
      type: DT_INT64
    }
  }
  attr {
    key: "value"
    value {
      tensor {
        dtype: DT_INT64
        tensor_shape {
        }
        int64_val: 262144
      }
    }
  }
}
node {
  name: "Placeholder"
  op: "Placeholder"
  attr {
    key: "_output_shapes"
    value {
      list {
        shape {
        }
      }
    }
  }
  attr {
    key: "dtype"
    value {
      type: DT_INT64
    }
  }
  attr {
    key: "shape"
    value {
      shape {
      }
    }
  }
}
node {
  name: "Const"
  op: "Const"
  attr {
    key: "_output_shapes"
    value {
      list {
        shape {
        }
      }
    }
  }
  attr {
    key: "dtype"
    value {
      type: DT_STRING
    }
  }
  attr {
    key: "value"
    value {
      tensor {
        dtype: DT_STRING
        tensor_shape {
        }
        string_val: "</s>"
      }
    }
  }
}
node {
  name: "hash_table_Lookup"
  op: "LookupTableFindV2"
  input: "string_to_index/hash_table"
  input: "Const"
  input: "string_to_index/hash_table/Const"
  attr {
    key: "Tin"
    value {
      type: DT_STRING
    }
  }
  attr {
    key: "Tout"
    value {
      type: DT_INT64
    }
  }
  attr {
    key: "_output_shapes"
    value {
      list {
        shape {
        }
      }
    }
  }
}
node {
  name: "Cast"
  op: "Cast"
  input: "hash_table_Lookup"
  attr {
    key: "DstT"
    value {
      type: DT_INT32
    }
  }
  attr {
    key: "SrcT"
    value {
      type: DT_INT64
    }
  }
  attr {
    key: "_output_shapes"
    value {
      list {
        shape {
        }
      }
    }
  }
}
node {
  name: "Const_1"
  op: "Const"
  attr {
    key: "_output_shapes"
    value {
      list {
        shape {
        }
      }
    }
  }
  attr {
    key: "dtype"
    value {
      type: DT_STRING
    }
  }
  attr {
    key: "value"
    value {
      tensor {
        dtype: DT_STRING
        tensor_shape {
        }
        string_val: "<s>"
      }
    }
  }
}
node {
  name: "hash_table_Lookup_1"
  op: "LookupTableFindV2"
  input: "string_to_index_1/hash_table"
  input: "Const_1"
  input: "string_to_index_1/hash_table/Const"
  attr {
    key: "Tin"
    value {
      type: DT_STRING
    }
  }
  attr {
    key: "Tout"
    value {
      type: DT_INT64
    }
  }
  attr {
    key: "_output_shapes"
    value {
      list {
        shape {
        }
      }
    }
  }
}
node {
  name: "Cast_1"
  op: "Cast"
  input: "hash_table_Lookup_1"
  attr {
    key: "DstT"
    value {
      type: DT_INT32
    }
  }
  attr {
    key: "SrcT"
    value {
      type: DT_INT64
    }
  }
  attr {
    key: "_output_shapes"
    value {
      list {
        shape {
        }
      }
    }
  }
}
node {
  name: "Const_2"
  op: "Const"
  attr {
    key: "_output_shapes"
    value {
      list {
        shape {
        }
      }
    }
  }
  attr {
    key: "dtype"
    value {
      type: DT_STRING
    }
  }
  attr {
    key: "value"
    value {
      tensor {
        dtype: DT_STRING
        tensor_shape {
        }
        string_val: "</s>"
      }
    }
  }
}
node {
  name: "hash_table_Lookup_2"
  op: "LookupTableFindV2"
  input: "string_to_index_1/hash_table"
  input: "Const_2"
  input: "string_to_index_1/hash_table/Const"
  attr {
    key: "Tin"
    value {
      type: DT_STRING
    }
  }
  attr {
    key: "Tout"
    value {
      type: DT_INT64
    }
  }
  attr {
    key: "_output_shapes"
    value {
      list {
        shape {
        }
      }
    }
  }
}
node {
  name: "Cast_2"
  op: "Cast"
  input: "hash_table_Lookup_2"
  attr {
    key: "DstT"
    value {
      type: DT_INT32
    }
  }
  attr {
    key: "SrcT"
    value {
      type: DT_INT64
    }
  }
  attr {
    key: "_output_shapes"
    value {
      list {
        shape {
        }
      }
    }
  }
}
node {
  name: "num_shards"
  op: "Const"
  attr {
    key: "_output_shapes"
    value {
      list {
        shape {
        }
      }
    }
  }
  attr {
    key: "dtype"
    value {
      type: DT_INT64
    }
  }
  attr {
    key: "value"
    value {
      tensor {
        dtype: DT_INT64
        tensor_shape {
        }
        int64_val: 1
      }
    }
  }
}
node {
  name: "index"
  op: "Const"
  attr {
    key: "_output_shapes"
    value {
      list {
        shape {
        }
      }
    }
  }
  attr {
    key: "dtype"
    value {
      type: DT_INT64
    }
  }
  attr {
    key: "value"
    value {
      tensor {
        dtype: DT_INT64
        tensor_shape {
        }
        int64_val: 0
      }
    }
  }
}
node {
  name: "step"
  op: "Const"
  attr {
    key: "_output_shapes"
    value {
      list {
        shape {
        }
      }
    }
  }
  attr {
    key: "dtype"
    value {
      type: DT_INT64
    }
  }
  attr {
    key: "value"
    value {
      tensor {
        dtype: DT_INT64
        tensor_shape {
        }
        int64_val: 1
      }
    }
  }
}
node {
  name: "buffer_size_2"
  op: "Const"
  attr {
    key: "_output_shapes"
    value {
      list {
        shape {
        }
      }
    }
  }
  attr {
    key: "dtype"
    value {
      type: DT_INT64
    }
  }
  attr {
    key: "value"
    value {
      tensor {
        dtype: DT_INT64
        tensor_shape {
        }
        int64_val: 128000
      }
    }
  }
}
node {
  name: "seed"
  op: "Const"
  attr {
    key: "_output_shapes"
    value {
      list {
        shape {
        }
      }
    }
  }
  attr {
    key: "dtype"
    value {
      type: DT_INT64
    }
  }
  attr {
    key: "value"
    value {
      tensor {
        dtype: DT_INT64
        tensor_shape {
        }
        int64_val: 0
      }
    }
  }
}
node {
  name: "seed2"
  op: "Const"
  attr {
    key: "_output_shapes"
    value {
      list {
        shape {
        }
      }
    }
  }
  attr {
    key: "dtype"
    value {
      type: DT_INT64
    }
  }
  attr {
    key: "value"
    value {
      tensor {
        dtype: DT_INT64
        tensor_shape {
        }
        int64_val: 0
      }
    }
  }
}
node {
  name: "num_parallel_calls"
  op: "Const"
  attr {
    key: "_output_shapes"
    value {
      list {
        shape {
        }
      }
    }
  }
  attr {
    key: "dtype"
    value {
      type: DT_INT32
    }
  }
  attr {
    key: "value"
    value {
      tensor {
        dtype: DT_INT32
        tensor_shape {
        }
        int_val: 4
      }
    }
  }
}
node {
  name: "Const_3"
  op: "Const"
  attr {
    key: "_output_shapes"
    value {
      list {
        shape {
        }
      }
    }
  }
  attr {
    key: "dtype"
    value {
      type: DT_INT64
    }
  }
  attr {
    key: "value"
    value {
      tensor {
        dtype: DT_INT64
        tensor_shape {
        }
        int64_val: 128000
      }
    }
  }
}
node {
  name: "num_parallel_calls_1"
  op: "Const"
  attr {
    key: "_output_shapes"
    value {
      list {
        shape {
        }
      }
    }
  }
  attr {
    key: "dtype"
    value {
      type: DT_INT32
    }
  }
  attr {
    key: "value"
    value {
      tensor {
        dtype: DT_INT32
        tensor_shape {
        }
        int_val: 4
      }
    }
  }
}
node {
  name: "Const_4"
  op: "Const"
  attr {
    key: "_output_shapes"
    value {
      list {
        shape {
        }
      }
    }
  }
  attr {
    key: "dtype"
    value {
      type: DT_INT64
    }
  }
  attr {
    key: "value"
    value {
      tensor {
        dtype: DT_INT64
        tensor_shape {
        }
        int64_val: 128000
      }
    }
  }
}
node {
  name: "num_parallel_calls_2"
  op: "Const"
  attr {
    key: "_output_shapes"
    value {
      list {
        shape {
        }
      }
    }
  }
  attr {
    key: "dtype"
    value {
      type: DT_INT32
    }
  }
  attr {
    key: "value"
    value {
      tensor {
        dtype: DT_INT32
        tensor_shape {
        }
        int_val: 4
      }
    }
  }
}
node {
  name: "Const_5"
  op: "Const"
  attr {
    key: "_output_shapes"
    value {
      list {
        shape {
        }
      }
    }
  }
  attr {
    key: "dtype"
    value {
      type: DT_INT64
    }
  }
  attr {
    key: "value"
    value {
      tensor {
        dtype: DT_INT64
        tensor_shape {
        }
        int64_val: 128000
      }
    }
  }
}
node {
  name: "num_parallel_calls_3"
  op: "Const"
  attr {
    key: "_output_shapes"
    value {
      list {
        shape {
        }
      }
    }
  }
  attr {
    key: "dtype"
    value {
      type: DT_INT32
    }
  }
  attr {
    key: "value"
    value {
      tensor {
        dtype: DT_INT32
        tensor_shape {
        }
        int_val: 4
      }
    }
  }
}
node {
  name: "Const_6"
  op: "Const"
  attr {
    key: "_output_shapes"
    value {
      list {
        shape {
        }
      }
    }
  }
  attr {
    key: "dtype"
    value {
      type: DT_INT64
    }
  }
  attr {
    key: "value"
    value {
      tensor {
        dtype: DT_INT64
        tensor_shape {
        }
        int64_val: 128000
      }
    }
  }
}
node {
  name: "num_parallel_calls_4"
  op: "Const"
  attr {
    key: "_output_shapes"
    value {
      list {
        shape {
        }
      }
    }
  }
  attr {
    key: "dtype"
    value {
      type: DT_INT32
    }
  }
  attr {
    key: "value"
    value {
      tensor {
        dtype: DT_INT32
        tensor_shape {
        }
        int_val: 4
      }
    }
  }
}
node {
  name: "Const_7"
  op: "Const"
  attr {
    key: "_output_shapes"
    value {
      list {
        shape {
        }
      }
    }
  }
  attr {
    key: "dtype"
    value {
      type: DT_INT64
    }
  }
  attr {
    key: "value"
    value {
      tensor {
        dtype: DT_INT64
        tensor_shape {
        }
        int64_val: 128000
      }
    }
  }
}
node {
  name: "num_parallel_calls_5"
  op: "Const"
  attr {
    key: "_output_shapes"
    value {
      list {
        shape {
        }
      }
    }
  }
  attr {
    key: "dtype"
    value {
      type: DT_INT32
    }
  }
  attr {
    key: "value"
    value {
      tensor {
        dtype: DT_INT32
        tensor_shape {
        }
        int_val: 4
      }
    }
  }
}
node {
  name: "Const_8"
  op: "Const"
  attr {
    key: "_output_shapes"
    value {
      list {
        shape {
        }
      }
    }
  }
  attr {
    key: "dtype"
    value {
      type: DT_INT64
    }
  }
  attr {
    key: "value"
    value {
      tensor {
        dtype: DT_INT64
        tensor_shape {
        }
        int64_val: 128000
      }
    }
  }
}
node {
  name: "Iterator"
  op: "Iterator"
  attr {
    key: "_output_shapes"
    value {
      list {
        shape {
        }
      }
    }
  }
  attr {
    key: "container"
    value {
      s: "train"
    }
  }
  attr {
    key: "output_shapes"
    value {
      list {
        shape {
          dim {
            size: -1
          }
          dim {
            size: -1
          }
        }
        shape {
          dim {
            size: -1
          }
          dim {
            size: -1
          }
        }
        shape {
          dim {
            size: -1
          }
          dim {
            size: -1
          }
        }
        shape {
          dim {
            size: -1
          }
        }
        shape {
          dim {
            size: -1
          }
        }
      }
    }
  }
  attr {
    key: "output_types"
    value {
      list {
        type: DT_INT32
        type: DT_INT32
        type: DT_INT32
        type: DT_INT32
        type: DT_INT32
      }
    }
  }
  attr {
    key: "shared_name"
    value {
      s: ""
    }
  }
}
node {
  name: "RangeDataset/start"
  op: "Const"
  attr {
    key: "_class"
    value {
      list {
        s: "loc:@Iterator"
      }
    }
  }
  attr {
    key: "_output_shapes"
    value {
      list {
        shape {
        }
      }
    }
  }
  attr {
    key: "dtype"
    value {
      type: DT_INT64
    }
  }
  attr {
    key: "value"
    value {
      tensor {
        dtype: DT_INT64
        tensor_shape {
        }
        int64_val: 0
      }
    }
  }
}
node {
  name: "RangeDataset/stop"
  op: "Const"
  attr {
    key: "_class"
    value {
      list {
        s: "loc:@Iterator"
      }
    }
  }
  attr {
    key: "_output_shapes"
    value {
      list {
        shape {
        }
      }
    }
  }
  attr {
    key: "dtype"
    value {
      type: DT_INT64
    }
  }
  attr {
    key: "value"
    value {
      tensor {
        dtype: DT_INT64
        tensor_shape {
        }
        int64_val: 9223372036854775807
      }
    }
  }
}
node {
  name: "RangeDataset"
  op: "RangeDataset"
  input: "RangeDataset/start"
  input: "RangeDataset/stop"
  input: "step"
  attr {
    key: "_class"
    value {
      list {
        s: "loc:@Iterator"
      }
    }
  }
  attr {
    key: "_output_shapes"
    value {
      list {
        shape {
        }
      }
    }
  }
  attr {
    key: "output_shapes"
    value {
      list {
        shape {
        }
      }
    }
  }
  attr {
    key: "output_types"
    value {
      list {
        type: DT_INT64
      }
    }
  }
}
node {
  name: "TextLineDataset"
  op: "TextLineDataset"
  input: "filenames"
  input: "compression_type"
  input: "buffer_size"
  attr {
    key: "_class"
    value {
      list {
        s: "loc:@Iterator"
      }
    }
  }
  attr {
    key: "_output_shapes"
    value {
      list {
        shape {
        }
      }
    }
  }
}
node {
  name: "TextLineDataset_1"
  op: "TextLineDataset"
  input: "filenames_1"
  input: "compression_type_1"
  input: "buffer_size_1"
  attr {
    key: "_class"
    value {
      list {
        s: "loc:@Iterator"
      }
    }
  }
  attr {
    key: "_output_shapes"
    value {
      list {
        shape {
        }
      }
    }
  }
}
node {
  name: "ZipDataset"
  op: "ZipDataset"
  input: "TextLineDataset"
  input: "TextLineDataset_1"
  attr {
    key: "N"
    value {
      i: 2
    }
  }
  attr {
    key: "_class"
    value {
      list {
        s: "loc:@Iterator"
      }
    }
  }
  attr {
    key: "_output_shapes"
    value {
      list {
        shape {
        }
      }
    }
  }
  attr {
    key: "output_shapes"
    value {
      list {
        shape {
        }
        shape {
        }
      }
    }
  }
  attr {
    key: "output_types"
    value {
      list {
        type: DT_STRING
        type: DT_STRING
      }
    }
  }
}
node {
  name: "ZipDataset_1"
  op: "ZipDataset"
  input: "RangeDataset"
  input: "ZipDataset"
  attr {
    key: "N"
    value {
      i: 2
    }
  }
  attr {
    key: "_class"
    value {
      list {
        s: "loc:@Iterator"
      }
    }
  }
  attr {
    key: "_output_shapes"
    value {
      list {
        shape {
        }
      }
    }
  }
  attr {
    key: "output_shapes"
    value {
      list {
        shape {
        }
        shape {
        }
        shape {
        }
      }
    }
  }
  attr {
    key: "output_types"
    value {
      list {
        type: DT_INT64
        type: DT_STRING
        type: DT_STRING
      }
    }
  }
}
node {
  name: "FilterDataset"
  op: "FilterDataset"
  input: "ZipDataset_1"
  input: "num_shards"
  input: "index"
  attr {
    key: "Targuments"
    value {
      list {
        type: DT_INT64
        type: DT_INT64
      }
    }
  }
  attr {
    key: "_class"
    value {
      list {
        s: "loc:@Iterator"
      }
    }
  }
  attr {
    key: "_output_shapes"
    value {
      list {
        shape {
        }
      }
    }
  }
  attr {
    key: "output_shapes"
    value {
      list {
        shape {
        }
        shape {
        }
        shape {
        }
      }
    }
  }
  attr {
    key: "output_types"
    value {
      list {
        type: DT_INT64
        type: DT_STRING
        type: DT_STRING
      }
    }
  }
  attr {
    key: "predicate"
    value {
      func {
        name: "tf_predicate_39f0a7d6"
      }
    }
  }
}
node {
  name: "MapDataset"
  op: "MapDataset"
  input: "FilterDataset"
  attr {
    key: "Targuments"
    value {
      list {
      }
    }
  }
  attr {
    key: "_class"
    value {
      list {
        s: "loc:@Iterator"
      }
    }
  }
  attr {
    key: "_output_shapes"
    value {
      list {
        shape {
        }
      }
    }
  }
  attr {
    key: "f"
    value {
      func {
        name: "tf_map_func_cbf8b27c"
      }
    }
  }
  attr {
    key: "output_shapes"
    value {
      list {
        shape {
        }
        shape {
        }
      }
    }
  }
  attr {
    key: "output_types"
    value {
      list {
        type: DT_STRING
        type: DT_STRING
      }
    }
  }
}
node {
  name: "SkipDataset"
  op: "SkipDataset"
  input: "MapDataset"
  input: "Placeholder"
  attr {
    key: "_class"
    value {
      list {
        s: "loc:@Iterator"
      }
    }
  }
  attr {
    key: "_output_shapes"
    value {
      list {
        shape {
        }
      }
    }
  }
  attr {
    key: "output_shapes"
    value {
      list {
        shape {
        }
        shape {
        }
      }
    }
  }
  attr {
    key: "output_types"
    value {
      list {
        type: DT_STRING
        type: DT_STRING
      }
    }
  }
}
node {
  name: "ShuffleDataset"
  op: "ShuffleDataset"
  input: "SkipDataset"
  input: "buffer_size_2"
  input: "seed"
  input: "seed2"
  attr {
    key: "_class"
    value {
      list {
        s: "loc:@Iterator"
      }
    }
  }
  attr {
    key: "_output_shapes"
    value {
      list {
        shape {
        }
      }
    }
  }
  attr {
    key: "output_shapes"
    value {
      list {
        shape {
        }
        shape {
        }
      }
    }
  }
  attr {
    key: "output_types"
    value {
      list {
        type: DT_STRING
        type: DT_STRING
      }
    }
  }
  attr {
    key: "reshuffle_each_iteration"
    value {
      b: true
    }
  }
}
node {
  name: "ParallelMapDataset"
  op: "ParallelMapDataset"
  input: "ShuffleDataset"
  input: "num_parallel_calls"
  attr {
    key: "Targuments"
    value {
      list {
      }
    }
  }
  attr {
    key: "_class"
    value {
      list {
        s: "loc:@Iterator"
      }
    }
  }
  attr {
    key: "_output_shapes"
    value {
      list {
        shape {
        }
      }
    }
  }
  attr {
    key: "f"
    value {
      func {
        name: "tf_map_func_fb472cfa"
      }
    }
  }
  attr {
    key: "output_shapes"
    value {
      list {
        shape {
          dim {
            size: -1
          }
        }
        shape {
          dim {
            size: -1
          }
        }
      }
    }
  }
  attr {
    key: "output_types"
    value {
      list {
        type: DT_STRING
        type: DT_STRING
      }
    }
  }
}
node {
  name: "PrefetchDataset"
  op: "PrefetchDataset"
  input: "ParallelMapDataset"
  input: "Const_3"
  attr {
    key: "_class"
    value {
      list {
        s: "loc:@Iterator"
      }
    }
  }
  attr {
    key: "_output_shapes"
    value {
      list {
        shape {
        }
      }
    }
  }
  attr {
    key: "output_shapes"
    value {
      list {
        shape {
          dim {
            size: -1
          }
        }
        shape {
          dim {
            size: -1
          }
        }
      }
    }
  }
  attr {
    key: "output_types"
    value {
      list {
        type: DT_STRING
        type: DT_STRING
      }
    }
  }
}
node {
  name: "FilterDataset_1"
  op: "FilterDataset"
  input: "PrefetchDataset"
  attr {
    key: "Targuments"
    value {
      list {
      }
    }
  }
  attr {
    key: "_class"
    value {
      list {
        s: "loc:@Iterator"
      }
    }
  }
  attr {
    key: "_output_shapes"
    value {
      list {
        shape {
        }
      }
    }
  }
  attr {
    key: "output_shapes"
    value {
      list {
        shape {
          dim {
            size: -1
          }
        }
        shape {
          dim {
            size: -1
          }
        }
      }
    }
  }
  attr {
    key: "output_types"
    value {
      list {
        type: DT_STRING
        type: DT_STRING
      }
    }
  }
  attr {
    key: "predicate"
    value {
      func {
        name: "tf_predicate_b289a3db"
      }
    }
  }
}
node {
  name: "ParallelMapDataset_1"
  op: "ParallelMapDataset"
  input: "FilterDataset_1"
  input: "num_parallel_calls_1"
  attr {
    key: "Targuments"
    value {
      list {
      }
    }
  }
  attr {
    key: "_class"
    value {
      list {
        s: "loc:@Iterator"
      }
    }
  }
  attr {
    key: "_output_shapes"
    value {
      list {
        shape {
        }
      }
    }
  }
  attr {
    key: "f"
    value {
      func {
        name: "tf_map_func_dfd7a2b6"
      }
    }
  }
  attr {
    key: "output_shapes"
    value {
      list {
        shape {
          dim {
            size: -1
          }
        }
        shape {
          dim {
            size: -1
          }
        }
      }
    }
  }
  attr {
    key: "output_types"
    value {
      list {
        type: DT_STRING
        type: DT_STRING
      }
    }
  }
}
node {
  name: "PrefetchDataset_1"
  op: "PrefetchDataset"
  input: "ParallelMapDataset_1"
  input: "Const_4"
  attr {
    key: "_class"
    value {
      list {
        s: "loc:@Iterator"
      }
    }
  }
  attr {
    key: "_output_shapes"
    value {
      list {
        shape {
        }
      }
    }
  }
  attr {
    key: "output_shapes"
    value {
      list {
        shape {
          dim {
            size: -1
          }
        }
        shape {
          dim {
            size: -1
          }
        }
      }
    }
  }
  attr {
    key: "output_types"
    value {
      list {
        type: DT_STRING
        type: DT_STRING
      }
    }
  }
}
node {
  name: "ParallelMapDataset_2"
  op: "ParallelMapDataset"
  input: "PrefetchDataset_1"
  input: "num_parallel_calls_2"
  attr {
    key: "Targuments"
    value {
      list {
      }
    }
  }
  attr {
    key: "_class"
    value {
      list {
        s: "loc:@Iterator"
      }
    }
  }
  attr {
    key: "_output_shapes"
    value {
      list {
        shape {
        }
      }
    }
  }
  attr {
    key: "f"
    value {
      func {
        name: "tf_map_func_70652492"
      }
    }
  }
  attr {
    key: "output_shapes"
    value {
      list {
        shape {
          dim {
            size: -1
          }
        }
        shape {
          dim {
            size: -1
          }
        }
      }
    }
  }
  attr {
    key: "output_types"
    value {
      list {
        type: DT_STRING
        type: DT_STRING
      }
    }
  }
}
node {
  name: "PrefetchDataset_2"
  op: "PrefetchDataset"
  input: "ParallelMapDataset_2"
  input: "Const_5"
  attr {
    key: "_class"
    value {
      list {
        s: "loc:@Iterator"
      }
    }
  }
  attr {
    key: "_output_shapes"
    value {
      list {
        shape {
        }
      }
    }
  }
  attr {
    key: "output_shapes"
    value {
      list {
        shape {
          dim {
            size: -1
          }
        }
        shape {
          dim {
            size: -1
          }
        }
      }
    }
  }
  attr {
    key: "output_types"
    value {
      list {
        type: DT_STRING
        type: DT_STRING
      }
    }
  }
}
node {
  name: "ParallelMapDataset_3"
  op: "ParallelMapDataset"
  input: "PrefetchDataset_2"
  input: "string_to_index/hash_table"
  input: "string_to_index/hash_table/Const"
  input: "string_to_index_1/hash_table"
  input: "string_to_index_1/hash_table/Const"
  input: "num_parallel_calls_3"
  attr {
    key: "Targuments"
    value {
      list {
        type: DT_RESOURCE
        type: DT_INT64
        type: DT_RESOURCE
        type: DT_INT64
      }
    }
  }
  attr {
    key: "_class"
    value {
      list {
        s: "loc:@Iterator"
      }
    }
  }
  attr {
    key: "_output_shapes"
    value {
      list {
        shape {
        }
      }
    }
  }
  attr {
    key: "f"
    value {
      func {
        name: "tf_map_func_4aca3265"
      }
    }
  }
  attr {
    key: "output_shapes"
    value {
      list {
        shape {
          dim {
            size: -1
          }
        }
        shape {
          dim {
            size: -1
          }
        }
      }
    }
  }
  attr {
    key: "output_types"
    value {
      list {
        type: DT_INT32
        type: DT_INT32
      }
    }
  }
}
node {
  name: "PrefetchDataset_3"
  op: "PrefetchDataset"
  input: "ParallelMapDataset_3"
  input: "Const_6"
  attr {
    key: "_class"
    value {
      list {
        s: "loc:@Iterator"
      }
    }
  }
  attr {
    key: "_output_shapes"
    value {
      list {
        shape {
        }
      }
    }
  }
  attr {
    key: "output_shapes"
    value {
      list {
        shape {
          dim {
            size: -1
          }
        }
        shape {
          dim {
            size: -1
          }
        }
      }
    }
  }
  attr {
    key: "output_types"
    value {
      list {
        type: DT_INT32
        type: DT_INT32
      }
    }
  }
}
node {
  name: "ParallelMapDataset_4"
  op: "ParallelMapDataset"
  input: "PrefetchDataset_3"
  input: "Cast_1"
  input: "Cast_2"
  input: "num_parallel_calls_4"
  attr {
    key: "Targuments"
    value {
      list {
        type: DT_INT32
        type: DT_INT32
      }
    }
  }
  attr {
    key: "_class"
    value {
      list {
        s: "loc:@Iterator"
      }
    }
  }
  attr {
    key: "_output_shapes"
    value {
      list {
        shape {
        }
      }
    }
  }
  attr {
    key: "f"
    value {
      func {
        name: "tf_map_func_9a173887"
      }
    }
  }
  attr {
    key: "output_shapes"
    value {
      list {
        shape {
          dim {
            size: -1
          }
        }
        shape {
          dim {
            size: -1
          }
        }
        shape {
          dim {
            size: -1
          }
        }
      }
    }
  }
  attr {
    key: "output_types"
    value {
      list {
        type: DT_INT32
        type: DT_INT32
        type: DT_INT32
      }
    }
  }
}
node {
  name: "PrefetchDataset_4"
  op: "PrefetchDataset"
  input: "ParallelMapDataset_4"
  input: "Const_7"
  attr {
    key: "_class"
    value {
      list {
        s: "loc:@Iterator"
      }
    }
  }
  attr {
    key: "_output_shapes"
    value {
      list {
        shape {
        }
      }
    }
  }
  attr {
    key: "output_shapes"
    value {
      list {
        shape {
          dim {
            size: -1
          }
        }
        shape {
          dim {
            size: -1
          }
        }
        shape {
          dim {
            size: -1
          }
        }
      }
    }
  }
  attr {
    key: "output_types"
    value {
      list {
        type: DT_INT32
        type: DT_INT32
        type: DT_INT32
      }
    }
  }
}
node {
  name: "ParallelMapDataset_5"
  op: "ParallelMapDataset"
  input: "PrefetchDataset_4"
  input: "num_parallel_calls_5"
  attr {
    key: "Targuments"
    value {
      list {
      }
    }
  }
  attr {
    key: "_class"
    value {
      list {
        s: "loc:@Iterator"
      }
    }
  }
  attr {
    key: "_output_shapes"
    value {
      list {
        shape {
        }
      }
    }
  }
  attr {
    key: "f"
    value {
      func {
        name: "tf_map_func_bb312444"
      }
    }
  }
  attr {
    key: "output_shapes"
    value {
      list {
        shape {
          dim {
            size: -1
          }
        }
        shape {
          dim {
            size: -1
          }
        }
        shape {
          dim {
            size: -1
          }
        }
        shape {
        }
        shape {
        }
      }
    }
  }
  attr {
    key: "output_types"
    value {
      list {
        type: DT_INT32
        type: DT_INT32
        type: DT_INT32
        type: DT_INT32
        type: DT_INT32
      }
    }
  }
}
node {
  name: "PrefetchDataset_5"
  op: "PrefetchDataset"
  input: "ParallelMapDataset_5"
  input: "Const_8"
  attr {
    key: "_class"
    value {
      list {
        s: "loc:@Iterator"
      }
    }
  }
  attr {
    key: "_output_shapes"
    value {
      list {
        shape {
        }
      }
    }
  }
  attr {
    key: "output_shapes"
    value {
      list {
        shape {
          dim {
            size: -1
          }
        }
        shape {
          dim {
            size: -1
          }
        }
        shape {
          dim {
            size: -1
          }
        }
        shape {
        }
        shape {
        }
      }
    }
  }
  attr {
    key: "output_types"
    value {
      list {
        type: DT_INT32
        type: DT_INT32
        type: DT_INT32
        type: DT_INT32
        type: DT_INT32
      }
    }
  }
}
node {
  name: "GroupByWindowDataset"
  op: "GroupByWindowDataset"
  input: "PrefetchDataset_5"
  input: "Cast"
  input: "Cast_2"
  attr {
    key: "Tkey_func_other_arguments"
    value {
      list {
      }
    }
  }
  attr {
    key: "Treduce_func_other_arguments"
    value {
      list {
        type: DT_INT32
        type: DT_INT32
      }
    }
  }
  attr {
    key: "Twindow_size_func_other_arguments"
    value {
      list {
      }
    }
  }
  attr {
    key: "_class"
    value {
      list {
        s: "loc:@Iterator"
      }
    }
  }
  attr {
    key: "_output_shapes"
    value {
      list {
        shape {
        }
      }
    }
  }
  attr {
    key: "key_func"
    value {
      func {
        name: "tf_key_func_6793a7e4"
      }
    }
  }
  attr {
    key: "output_shapes"
    value {
      list {
        shape {
          dim {
            size: -1
          }
          dim {
            size: -1
          }
        }
        shape {
          dim {
            size: -1
          }
          dim {
            size: -1
          }
        }
        shape {
          dim {
            size: -1
          }
          dim {
            size: -1
          }
        }
        shape {
          dim {
            size: -1
          }
        }
        shape {
          dim {
            size: -1
          }
        }
      }
    }
  }
  attr {
    key: "output_types"
    value {
      list {
        type: DT_INT32
        type: DT_INT32
        type: DT_INT32
        type: DT_INT32
        type: DT_INT32
      }
    }
  }
  attr {
    key: "reduce_func"
    value {
      func {
        name: "tf_reduce_func_da536246"
      }
    }
  }
  attr {
    key: "window_size_func"
    value {
      func {
        name: "tf_window_size_func_8e0addc6"
      }
    }
  }
}
node {
  name: "MakeIterator"
  op: "MakeIterator"
  input: "GroupByWindowDataset"
  input: "Iterator"
  attr {
    key: "_class"
    value {
      list {
        s: "loc:@Iterator"
      }
    }
  }
}
node {
  name: "IteratorGetNext"
  op: "IteratorGetNext"
  input: "Iterator"
  attr {
    key: "_output_shapes"
    value {
      list {
        shape {
          dim {
            size: -1
          }
          dim {
            size: -1
          }
        }
        shape {
          dim {
            size: -1
          }
          dim {
            size: -1
          }
        }
        shape {
          dim {
            size: -1
          }
          dim {
            size: -1
          }
        }
        shape {
          dim {
            size: -1
          }
        }
        shape {
          dim {
            size: -1
          }
        }
      }
    }
  }
  attr {
    key: "output_shapes"
    value {
      list {
        shape {
          dim {
            size: -1
          }
          dim {
            size: -1
          }
        }
        shape {
          dim {
            size: -1
          }
          dim {
            size: -1
          }
        }
        shape {
          dim {
            size: -1
          }
          dim {
            size: -1
          }
        }
        shape {
          dim {
            size: -1
          }
        }
        shape {
          dim {
            size: -1
          }
        }
      }
    }
  }
  attr {
    key: "output_types"
    value {
      list {
        type: DT_INT32
        type: DT_INT32
        type: DT_INT32
        type: DT_INT32
        type: DT_INT32
      }
    }
  }
}
node {
  name: "embeddings/encoder/embedding_encoder/Initializer/random_uniform/shape"
  op: "Const"
  attr {
    key: "_class"
    value {
      list {
        s: "loc:@embeddings/encoder/embedding_encoder"
      }
    }
  }
  attr {
    key: "_output_shapes"
    value {
      list {
        shape {
          dim {
            size: 2
          }
        }
      }
    }
  }
  attr {
    key: "dtype"
    value {
      type: DT_INT32
    }
  }
  attr {
    key: "value"
    value {
      tensor {
        dtype: DT_INT32
        tensor_shape {
          dim {
            size: 2
          }
        }
        tensor_content: "\304\216\000\000\000\004\000\000"
      }
    }
  }
}
node {
  name: "embeddings/encoder/embedding_encoder/Initializer/random_uniform/min"
  op: "Const"
  attr {
    key: "_class"
    value {
      list {
        s: "loc:@embeddings/encoder/embedding_encoder"
      }
    }
  }
  attr {
    key: "_output_shapes"
    value {
      list {
        shape {
        }
      }
    }
  }
  attr {
    key: "dtype"
    value {
      type: DT_FLOAT
    }
  }
  attr {
    key: "value"
    value {
      tensor {
        dtype: DT_FLOAT
        tensor_shape {
        }
        float_val: -0.10000000149011612
      }
    }
  }
}
node {
  name: "embeddings/encoder/embedding_encoder/Initializer/random_uniform/max"
  op: "Const"
  attr {
    key: "_class"
    value {
      list {
        s: "loc:@embeddings/encoder/embedding_encoder"
      }
    }
  }
  attr {
    key: "_output_shapes"
    value {
      list {
        shape {
        }
      }
    }
  }
  attr {
    key: "dtype"
    value {
      type: DT_FLOAT
    }
  }
  attr {
    key: "value"
    value {
      tensor {
        dtype: DT_FLOAT
        tensor_shape {
        }
        float_val: 0.10000000149011612
      }
    }
  }
}
node {
  name: "embeddings/encoder/embedding_encoder/Initializer/random_uniform/RandomUniform"
  op: "RandomUniform"
  input: "embeddings/encoder/embedding_encoder/Initializer/random_uniform/shape"
  attr {
    key: "T"
    value {
      type: DT_INT32
    }
  }
  attr {
    key: "_class"
    value {
      list {
        s: "loc:@embeddings/encoder/embedding_encoder"
      }
    }
  }
  attr {
    key: "_output_shapes"
    value {
      list {
        shape {
          dim {
            size: 36548
          }
          dim {
            size: 1024
          }
        }
      }
    }
  }
  attr {
    key: "dtype"
    value {
      type: DT_FLOAT
    }
  }
  attr {
    key: "seed"
    value {
      i: 0
    }
  }
  attr {
    key: "seed2"
    value {
      i: 0
    }
  }
}
node {
  name: "embeddings/encoder/embedding_encoder/Initializer/random_uniform/sub"
  op: "Sub"
  input: "embeddings/encoder/embedding_encoder/Initializer/random_uniform/max"
  input: "embeddings/encoder/embedding_encoder/Initializer/random_uniform/min"
  attr {
    key: "T"
    value {
      type: DT_FLOAT
    }
  }
  attr {
    key: "_class"
    value {
      list {
        s: "loc:@embeddings/encoder/embedding_encoder"
      }
    }
  }
  attr {
    key: "_output_shapes"
    value {
      list {
        shape {
        }
      }
    }
  }
}
node {
  name: "embeddings/encoder/embedding_encoder/Initializer/random_uniform/mul"
  op: "Mul"
  input: "embeddings/encoder/embedding_encoder/Initializer/random_uniform/RandomUniform"
  input: "embeddings/encoder/embedding_encoder/Initializer/random_uniform/sub"
  attr {
    key: "T"
    value {
      type: DT_FLOAT
    }
  }
  attr {
    key: "_class"
    value {
      list {
        s: "loc:@embeddings/encoder/embedding_encoder"
      }
    }
  }
  attr {
    key: "_output_shapes"
    value {
      list {
        shape {
          dim {
            size: 36548
          }
          dim {
            size: 1024
          }
        }
      }
    }
  }
}
node {
  name: "embeddings/encoder/embedding_encoder/Initializer/random_uniform"
  op: "Add"
  input: "embeddings/encoder/embedding_encoder/Initializer/random_uniform/mul"
  input: "embeddings/encoder/embedding_encoder/Initializer/random_uniform/min"
  attr {
    key: "T"
    value {
      type: DT_FLOAT
    }
  }
  attr {
    key: "_class"
    value {
      list {
        s: "loc:@embeddings/encoder/embedding_encoder"
      }
    }
  }
  attr {
    key: "_output_shapes"
    value {
      list {
        shape {
          dim {
            size: 36548
          }
          dim {
            size: 1024
          }
        }
      }
    }
  }
}
node {
  name: "embeddings/encoder/embedding_encoder"
  op: "VariableV2"
  device: "/device:GPU:0"
  attr {
    key: "_class"
    value {
      list {
        s: "loc:@embeddings/encoder/embedding_encoder"
      }
    }
  }
  attr {
    key: "_output_shapes"
    value {
      list {
        shape {
          dim {
            size: 36548
          }
          dim {
            size: 1024
          }
        }
      }
    }
  }
  attr {
    key: "container"
    value {
      s: "train"
    }
  }
  attr {
    key: "dtype"
    value {
      type: DT_FLOAT
    }
  }
  attr {
    key: "shape"
    value {
      shape {
        dim {
          size: 36548
        }
        dim {
          size: 1024
        }
      }
    }
  }
  attr {
    key: "shared_name"
    value {
      s: ""
    }
  }
}
node {
  name: "embeddings/encoder/embedding_encoder/Assign"
  op: "Assign"
  input: "embeddings/encoder/embedding_encoder"
  input: "embeddings/encoder/embedding_encoder/Initializer/random_uniform"
  device: "/device:GPU:0"
  attr {
    key: "T"
    value {
      type: DT_FLOAT
    }
  }
  attr {
    key: "_class"
    value {
      list {
        s: "loc:@embeddings/encoder/embedding_encoder"
      }
    }
  }
  attr {
    key: "_output_shapes"
    value {
      list {
        shape {
          dim {
            size: 36548
          }
          dim {
            size: 1024
          }
        }
      }
    }
  }
  attr {
    key: "use_locking"
    value {
      b: true
    }
  }
  attr {
    key: "validate_shape"
    value {
      b: true
    }
  }
}
node {
  name: "embeddings/encoder/embedding_encoder/read"
  op: "Identity"
  input: "embeddings/encoder/embedding_encoder"
  device: "/device:GPU:0"
  attr {
    key: "T"
    value {
      type: DT_FLOAT
    }
  }
  attr {
    key: "_class"
    value {
      list {
        s: "loc:@embeddings/encoder/embedding_encoder"
      }
    }
  }
  attr {
    key: "_output_shapes"
    value {
      list {
        shape {
          dim {
            size: 36548
          }
          dim {
            size: 1024
          }
        }
      }
    }
  }
}
node {
  name: "embeddings/decoder/embedding_decoder/Initializer/random_uniform/shape"
  op: "Const"
  attr {
    key: "_class"
    value {
      list {
        s: "loc:@embeddings/decoder/embedding_decoder"
      }
    }
  }
  attr {
    key: "_output_shapes"
    value {
      list {
        shape {
          dim {
            size: 2
          }
        }
      }
    }
  }
  attr {
    key: "dtype"
    value {
      type: DT_INT32
    }
  }
  attr {
    key: "value"
    value {
      tensor {
        dtype: DT_INT32
        tensor_shape {
          dim {
            size: 2
          }
        }
        tensor_content: "\304\216\000\000\000\004\000\000"
      }
    }
  }
}
node {
  name: "embeddings/decoder/embedding_decoder/Initializer/random_uniform/min"
  op: "Const"
  attr {
    key: "_class"
    value {
      list {
        s: "loc:@embeddings/decoder/embedding_decoder"
      }
    }
  }
  attr {
    key: "_output_shapes"
    value {
      list {
        shape {
        }
      }
    }
  }
  attr {
    key: "dtype"
    value {
      type: DT_FLOAT
    }
  }
  attr {
    key: "value"
    value {
      tensor {
        dtype: DT_FLOAT
        tensor_shape {
        }
        float_val: -0.10000000149011612
      }
    }
  }
}
node {
  name: "embeddings/decoder/embedding_decoder/Initializer/random_uniform/max"
  op: "Const"
  attr {
    key: "_class"
    value {
      list {
        s: "loc:@embeddings/decoder/embedding_decoder"
      }
    }
  }
  attr {
    key: "_output_shapes"
    value {
      list {
        shape {
        }
      }
    }
  }
  attr {
    key: "dtype"
    value {
      type: DT_FLOAT
    }
  }
  attr {
    key: "value"
    value {
      tensor {
        dtype: DT_FLOAT
        tensor_shape {
        }
        float_val: 0.10000000149011612
      }
    }
  }
}
node {
  name: "embeddings/decoder/embedding_decoder/Initializer/random_uniform/RandomUniform"
  op: "RandomUniform"
  input: "embeddings/decoder/embedding_decoder/Initializer/random_uniform/shape"
  attr {
    key: "T"
    value {
      type: DT_INT32
    }
  }
  attr {
    key: "_class"
    value {
      list {
        s: "loc:@embeddings/decoder/embedding_decoder"
      }
    }
  }
  attr {
    key: "_output_shapes"
    value {
      list {
        shape {
          dim {
            size: 36548
          }
          dim {
            size: 1024
          }
        }
      }
    }
  }
  attr {
    key: "dtype"
    value {
      type: DT_FLOAT
    }
  }
  attr {
    key: "seed"
    value {
      i: 0
    }
  }
  attr {
    key: "seed2"
    value {
      i: 0
    }
  }
}
node {
  name: "embeddings/decoder/embedding_decoder/Initializer/random_uniform/sub"
  op: "Sub"
  input: "embeddings/decoder/embedding_decoder/Initializer/random_uniform/max"
  input: "embeddings/decoder/embedding_decoder/Initializer/random_uniform/min"
  attr {
    key: "T"
    value {
      type: DT_FLOAT
    }
  }
  attr {
    key: "_class"
    value {
      list {
        s: "loc:@embeddings/decoder/embedding_decoder"
      }
    }
  }
  attr {
    key: "_output_shapes"
    value {
      list {
        shape {
        }
      }
    }
  }
}
node {
  name: "embeddings/decoder/embedding_decoder/Initializer/random_uniform/mul"
  op: "Mul"
  input: "embeddings/decoder/embedding_decoder/Initializer/random_uniform/RandomUniform"
  input: "embeddings/decoder/embedding_decoder/Initializer/random_uniform/sub"
  attr {
    key: "T"
    value {
      type: DT_FLOAT
    }
  }
  attr {
    key: "_class"
    value {
      list {
        s: "loc:@embeddings/decoder/embedding_decoder"
      }
    }
  }
  attr {
    key: "_output_shapes"
    value {
      list {
        shape {
          dim {
            size: 36548
          }
          dim {
            size: 1024
          }
        }
      }
    }
  }
}
node {
  name: "embeddings/decoder/embedding_decoder/Initializer/random_uniform"
  op: "Add"
  input: "embeddings/decoder/embedding_decoder/Initializer/random_uniform/mul"
  input: "embeddings/decoder/embedding_decoder/Initializer/random_uniform/min"
  attr {
    key: "T"
    value {
      type: DT_FLOAT
    }
  }
  attr {
    key: "_class"
    value {
      list {
        s: "loc:@embeddings/decoder/embedding_decoder"
      }
    }
  }
  attr {
    key: "_output_shapes"
    value {
      list {
        shape {
          dim {
            size: 36548
          }
          dim {
            size: 1024
          }
        }
      }
    }
  }
}
node {
  name: "embeddings/decoder/embedding_decoder"
  op: "VariableV2"
  device: "/device:GPU:0"
  attr {
    key: "_class"
    value {
      list {
        s: "loc:@embeddings/decoder/embedding_decoder"
      }
    }
  }
  attr {
    key: "_output_shapes"
    value {
      list {
        shape {
          dim {
            size: 36548
          }
          dim {
            size: 1024
          }
        }
      }
    }
  }
  attr {
    key: "container"
    value {
      s: "train"
    }
  }
  attr {
    key: "dtype"
    value {
      type: DT_FLOAT
    }
  }
  attr {
    key: "shape"
    value {
      shape {
        dim {
          size: 36548
        }
        dim {
          size: 1024
        }
      }
    }
  }
  attr {
    key: "shared_name"
    value {
      s: ""
    }
  }
}
node {
  name: "embeddings/decoder/embedding_decoder/Assign"
  op: "Assign"
  input: "embeddings/decoder/embedding_decoder"
  input: "embeddings/decoder/embedding_decoder/Initializer/random_uniform"
  device: "/device:GPU:0"
  attr {
    key: "T"
    value {
      type: DT_FLOAT
    }
  }
  attr {
    key: "_class"
    value {
      list {
        s: "loc:@embeddings/decoder/embedding_decoder"
      }
    }
  }
  attr {
    key: "_output_shapes"
    value {
      list {
        shape {
          dim {
            size: 36548
          }
          dim {
            size: 1024
          }
        }
      }
    }
  }
  attr {
    key: "use_locking"
    value {
      b: true
    }
  }
  attr {
    key: "validate_shape"
    value {
      b: true
    }
  }
}
node {
  name: "embeddings/decoder/embedding_decoder/read"
  op: "Identity"
  input: "embeddings/decoder/embedding_decoder"
  device: "/device:GPU:0"
  attr {
    key: "T"
    value {
      type: DT_FLOAT
    }
  }
  attr {
    key: "_class"
    value {
      list {
        s: "loc:@embeddings/decoder/embedding_decoder"
      }
    }
  }
  attr {
    key: "_output_shapes"
    value {
      list {
        shape {
          dim {
            size: 36548
          }
          dim {
            size: 1024
          }
        }
      }
    }
  }
}
node {
  name: "Size"
  op: "Size"
  input: "IteratorGetNext:3"
  attr {
    key: "T"
    value {
      type: DT_INT32
    }
  }
  attr {
    key: "_output_shapes"
    value {
      list {
        shape {
        }
      }
    }
  }
  attr {
    key: "out_type"
    value {
      type: DT_INT32
    }
  }
}
node {
  name: "dynamic_seq2seq/transpose/Rank"
  op: "Rank"
  input: "IteratorGetNext"
  attr {
    key: "T"
    value {
      type: DT_INT32
    }
  }
  attr {
    key: "_output_shapes"
    value {
      list {
        shape {
        }
      }
    }
  }
}
node {
  name: "dynamic_seq2seq/transpose/sub/y"
  op: "Const"
  attr {
    key: "_output_shapes"
    value {
      list {
        shape {
        }
      }
    }
  }
  attr {
    key: "dtype"
    value {
      type: DT_INT32
    }
  }
  attr {
    key: "value"
    value {
      tensor {
        dtype: DT_INT32
        tensor_shape {
        }
        int_val: 1
      }
    }
  }
}
node {
  name: "dynamic_seq2seq/transpose/sub"
  op: "Sub"
  input: "dynamic_seq2seq/transpose/Rank"
  input: "dynamic_seq2seq/transpose/sub/y"
  attr {
    key: "T"
    value {
      type: DT_INT32
    }
  }
  attr {
    key: "_output_shapes"
    value {
      list {
        shape {
        }
      }
    }
  }
}
node {
  name: "dynamic_seq2seq/transpose/Range/start"
  op: "Const"
  attr {
    key: "_output_shapes"
    value {
      list {
        shape {
        }
      }
    }
  }
  attr {
    key: "dtype"
    value {
      type: DT_INT32
    }
  }
  attr {
    key: "value"
    value {
      tensor {
        dtype: DT_INT32
        tensor_shape {
        }
        int_val: 0
      }
    }
  }
}
node {
  name: "dynamic_seq2seq/transpose/Range/delta"
  op: "Const"
  attr {
    key: "_output_shapes"
    value {
      list {
        shape {
        }
      }
    }
  }
  attr {
    key: "dtype"
    value {
      type: DT_INT32
    }
  }
  attr {
    key: "value"
    value {
      tensor {
        dtype: DT_INT32
        tensor_shape {
        }
        int_val: 1
      }
    }
  }
}
node {
  name: "dynamic_seq2seq/transpose/Range"
  op: "Range"
  input: "dynamic_seq2seq/transpose/Range/start"
  input: "dynamic_seq2seq/transpose/Rank"
  input: "dynamic_seq2seq/transpose/Range/delta"
  attr {
    key: "Tidx"
    value {
      type: DT_INT32
    }
  }
  attr {
    key: "_output_shapes"
    value {
      list {
        shape {
          dim {
            size: 2
          }
        }
      }
    }
  }
}
node {
  name: "dynamic_seq2seq/transpose/sub_1"
  op: "Sub"
  input: "dynamic_seq2seq/transpose/sub"
  input: "dynamic_seq2seq/transpose/Range"
  attr {
    key: "T"
    value {
      type: DT_INT32
    }
  }
  attr {
    key: "_output_shapes"
    value {
      list {
        shape {
          dim {
            size: 2
          }
        }
      }
    }
  }
}
node {
  name: "dynamic_seq2seq/transpose"
  op: "Transpose"
  input: "IteratorGetNext"
  input: "dynamic_seq2seq/transpose/sub_1"
  attr {
    key: "T"
    value {
      type: DT_INT32
    }
  }
  attr {
    key: "Tperm"
    value {
      type: DT_INT32
    }
  }
  attr {
    key: "_output_shapes"
    value {
      list {
        shape {
          dim {
            size: -1
          }
          dim {
            size: -1
          }
        }
      }
    }
  }
}
node {
  name: "dynamic_seq2seq/encoder/embedding_lookup"
  op: "Gather"
  input: "embeddings/encoder/embedding_encoder/read"
  input: "dynamic_seq2seq/transpose"
  device: "/device:GPU:0"
  attr {
    key: "Tindices"
    value {
      type: DT_INT32
    }
  }
  attr {
    key: "Tparams"
    value {
      type: DT_FLOAT
    }
  }
  attr {
    key: "_class"
    value {
      list {
        s: "loc:@embeddings/encoder/embedding_encoder"
      }
    }
  }
  attr {
    key: "_output_shapes"
    value {
      list {
        shape {
          dim {
            size: -1
          }
          dim {
            size: -1
          }
          dim {
            size: 1024
          }
        }
      }
    }
  }
  attr {
    key: "validate_indices"
    value {
      b: true
    }
  }
}
node {
  name: "dynamic_seq2seq/encoder/DropoutWrapperInit/Const"
  op: "Const"
  attr {
    key: "_output_shapes"
    value {
      list {
        shape {
        }
      }
    }
  }
  attr {
    key: "dtype"
    value {
      type: DT_FLOAT
    }
  }
  attr {
    key: "value"
    value {
      tensor {
        dtype: DT_FLOAT
        tensor_shape {
        }
        float_val: 0.800000011920929
      }
    }
  }
}
node {
  name: "dynamic_seq2seq/encoder/DropoutWrapperInit/Const_1"
  op: "Const"
  attr {
    key: "_output_shapes"
    value {
      list {
        shape {
        }
      }
    }
  }
  attr {
    key: "dtype"
    value {
      type: DT_FLOAT
    }
  }
  attr {
    key: "value"
    value {
      tensor {
        dtype: DT_FLOAT
        tensor_shape {
        }
        float_val: 1.0
      }
    }
  }
}
node {
  name: "dynamic_seq2seq/encoder/DropoutWrapperInit/Const_2"
  op: "Const"
  attr {
    key: "_output_shapes"
    value {
      list {
        shape {
        }
      }
    }
  }
  attr {
    key: "dtype"
    value {
      type: DT_FLOAT
    }
  }
  attr {
    key: "value"
    value {
      tensor {
        dtype: DT_FLOAT
        tensor_shape {
        }
        float_val: 1.0
      }
    }
  }
}
node {
  name: "dynamic_seq2seq/encoder/DropoutWrapperInit_1/Const"
  op: "Const"
  attr {
    key: "_output_shapes"
    value {
      list {
        shape {
        }
      }
    }
  }
  attr {
    key: "dtype"
    value {
      type: DT_FLOAT
    }
  }
  attr {
    key: "value"
    value {
      tensor {
        dtype: DT_FLOAT
        tensor_shape {
        }
        float_val: 0.800000011920929
      }
    }
  }
}
node {
  name: "dynamic_seq2seq/encoder/DropoutWrapperInit_1/Const_1"
  op: "Const"
  attr {
    key: "_output_shapes"
    value {
      list {
        shape {
        }
      }
    }
  }
  attr {
    key: "dtype"
    value {
      type: DT_FLOAT
    }
  }
  attr {
    key: "value"
    value {
      tensor {
        dtype: DT_FLOAT
        tensor_shape {
        }
        float_val: 1.0
      }
    }
  }
}
node {
  name: "dynamic_seq2seq/encoder/DropoutWrapperInit_1/Const_2"
  op: "Const"
  attr {
    key: "_output_shapes"
    value {
      list {
        shape {
        }
      }
    }
  }
  attr {
    key: "dtype"
    value {
      type: DT_FLOAT
    }
  }
  attr {
    key: "value"
    value {
      tensor {
        dtype: DT_FLOAT
        tensor_shape {
        }
        float_val: 1.0
      }
    }
  }
}
node {
  name: "dynamic_seq2seq/encoder/bidirectional_rnn/fw/sequence_length"
  op: "Identity"
  input: "IteratorGetNext:3"
  attr {
    key: "T"
    value {
      type: DT_INT32
    }
  }
  attr {
    key: "_output_shapes"
    value {
      list {
        shape {
          dim {
            size: -1
          }
        }
      }
    }
  }
}
node {
  name: "dynamic_seq2seq/encoder/bidirectional_rnn/fw/fw/Shape"
  op: "Shape"
  input: "dynamic_seq2seq/encoder/embedding_lookup"
  attr {
    key: "T"
    value {
      type: DT_FLOAT
    }
  }
  attr {
    key: "_output_shapes"
    value {
      list {
        shape {
          dim {
            size: 3
          }
        }
      }
    }
  }
  attr {
    key: "out_type"
    value {
      type: DT_INT32
    }
  }
}
node {
  name: "dynamic_seq2seq/encoder/bidirectional_rnn/fw/fw/strided_slice/stack"
  op: "Const"
  attr {
    key: "_output_shapes"
    value {
      list {
        shape {
          dim {
            size: 1
          }
        }
      }
    }
  }
  attr {
    key: "dtype"
    value {
      type: DT_INT32
    }
  }
  attr {
    key: "value"
    value {
      tensor {
        dtype: DT_INT32
        tensor_shape {
          dim {
            size: 1
          }
        }
        int_val: 1
      }
    }
  }
}
node {
  name: "dynamic_seq2seq/encoder/bidirectional_rnn/fw/fw/strided_slice/stack_1"
  op: "Const"
  attr {
    key: "_output_shapes"
    value {
      list {
        shape {
          dim {
            size: 1
          }
        }
      }
    }
  }
  attr {
    key: "dtype"
    value {
      type: DT_INT32
    }
  }
  attr {
    key: "value"
    value {
      tensor {
        dtype: DT_INT32
        tensor_shape {
          dim {
            size: 1
          }
        }
        int_val: 2
      }
    }
  }
}
node {
  name: "dynamic_seq2seq/encoder/bidirectional_rnn/fw/fw/strided_slice/stack_2"
  op: "Const"
  attr {
    key: "_output_shapes"
    value {
      list {
        shape {
          dim {
            size: 1
          }
        }
      }
    }
  }
  attr {
    key: "dtype"
    value {
      type: DT_INT32
    }
  }
  attr {
    key: "value"
    value {
      tensor {
        dtype: DT_INT32
        tensor_shape {
          dim {
            size: 1
          }
        }
        int_val: 1
      }
    }
  }
}
node {
  name: "dynamic_seq2seq/encoder/bidirectional_rnn/fw/fw/strided_slice"
  op: "StridedSlice"
  input: "dynamic_seq2seq/encoder/bidirectional_rnn/fw/fw/Shape"
  input: "dynamic_seq2seq/encoder/bidirectional_rnn/fw/fw/strided_slice/stack"
  input: "dynamic_seq2seq/encoder/bidirectional_rnn/fw/fw/strided_slice/stack_1"
  input: "dynamic_seq2seq/encoder/bidirectional_rnn/fw/fw/strided_slice/stack_2"
  attr {
    key: "Index"
    value {
      type: DT_INT32
    }
  }
  attr {
    key: "T"
    value {
      type: DT_INT32
    }
  }
  attr {
    key: "_output_shapes"
    value {
      list {
        shape {
        }
      }
    }
  }
  attr {
    key: "begin_mask"
    value {
      i: 0
    }
  }
  attr {
    key: "ellipsis_mask"
    value {
      i: 0
    }
  }
  attr {
    key: "end_mask"
    value {
      i: 0
    }
  }
  attr {
    key: "new_axis_mask"
    value {
      i: 0
    }
  }
  attr {
    key: "shrink_axis_mask"
    value {
      i: 1
    }
  }
}
node {
  name: "dynamic_seq2seq/encoder/bidirectional_rnn/fw/fw/DeviceWrapperZeroState/DropoutWrapperZeroState/BasicLSTMCellZeroState/ExpandDims/dim"
  op: "Const"
  device: "/device:GPU:0"
  attr {
    key: "_output_shapes"
    value {
      list {
        shape {
        }
      }
    }
  }
  attr {
    key: "dtype"
    value {
      type: DT_INT32
    }
  }
  attr {
    key: "value"
    value {
      tensor {
        dtype: DT_INT32
        tensor_shape {
        }
        int_val: 0
      }
    }
  }
}
node {
  name: "dynamic_seq2seq/encoder/bidirectional_rnn/fw/fw/DeviceWrapperZeroState/DropoutWrapperZeroState/BasicLSTMCellZeroState/ExpandDims"
  op: "ExpandDims"
  input: "dynamic_seq2seq/encoder/bidirectional_rnn/fw/fw/strided_slice"
  input: "dynamic_seq2seq/encoder/bidirectional_rnn/fw/fw/DeviceWrapperZeroState/DropoutWrapperZeroState/BasicLSTMCellZeroState/ExpandDims/dim"
  device: "/device:GPU:0"
  attr {
    key: "T"
    value {
      type: DT_INT32
    }
  }
  attr {
    key: "Tdim"
    value {
      type: DT_INT32
    }
  }
  attr {
    key: "_output_shapes"
    value {
      list {
        shape {
          dim {
            size: 1
          }
        }
      }
    }
  }
}
node {
  name: "dynamic_seq2seq/encoder/bidirectional_rnn/fw/fw/DeviceWrapperZeroState/DropoutWrapperZeroState/BasicLSTMCellZeroState/Const"
  op: "Const"
  device: "/device:GPU:0"
  attr {
    key: "_output_shapes"
    value {
      list {
        shape {
          dim {
            size: 1
          }
        }
      }
    }
  }
  attr {
    key: "dtype"
    value {
      type: DT_INT32
    }
  }
  attr {
    key: "value"
    value {
      tensor {
        dtype: DT_INT32
        tensor_shape {
          dim {
            size: 1
          }
        }
        int_val: 1024
      }
    }
  }
}
node {
  name: "dynamic_seq2seq/encoder/bidirectional_rnn/fw/fw/DeviceWrapperZeroState/DropoutWrapperZeroState/BasicLSTMCellZeroState/concat/axis"
  op: "Const"
  device: "/device:GPU:0"
  attr {
    key: "_output_shapes"
    value {
      list {
        shape {
        }
      }
    }
  }
  attr {
    key: "dtype"
    value {
      type: DT_INT32
    }
  }
  attr {
    key: "value"
    value {
      tensor {
        dtype: DT_INT32
        tensor_shape {
        }
        int_val: 0
      }
    }
  }
}
node {
  name: "dynamic_seq2seq/encoder/bidirectional_rnn/fw/fw/DeviceWrapperZeroState/DropoutWrapperZeroState/BasicLSTMCellZeroState/concat"
  op: "ConcatV2"
  input: "dynamic_seq2seq/encoder/bidirectional_rnn/fw/fw/DeviceWrapperZeroState/DropoutWrapperZeroState/BasicLSTMCellZeroState/ExpandDims"
  input: "dynamic_seq2seq/encoder/bidirectional_rnn/fw/fw/DeviceWrapperZeroState/DropoutWrapperZeroState/BasicLSTMCellZeroState/Const"
  input: "dynamic_seq2seq/encoder/bidirectional_rnn/fw/fw/DeviceWrapperZeroState/DropoutWrapperZeroState/BasicLSTMCellZeroState/concat/axis"
  device: "/device:GPU:0"
  attr {
    key: "N"
    value {
      i: 2
    }
  }
  attr {
    key: "T"
    value {
      type: DT_INT32
    }
  }
  attr {
    key: "Tidx"
    value {
      type: DT_INT32
    }
  }
  attr {
    key: "_output_shapes"
    value {
      list {
        shape {
          dim {
            size: 2
          }
        }
      }
    }
  }
}
node {
  name: "dynamic_seq2seq/encoder/bidirectional_rnn/fw/fw/DeviceWrapperZeroState/DropoutWrapperZeroState/BasicLSTMCellZeroState/zeros/Const"
  op: "Const"
  device: "/device:GPU:0"
  attr {
    key: "_output_shapes"
    value {
      list {
        shape {
        }
      }
    }
  }
  attr {
    key: "dtype"
    value {
      type: DT_FLOAT
    }
  }
  attr {
    key: "value"
    value {
      tensor {
        dtype: DT_FLOAT
        tensor_shape {
        }
        float_val: 0.0
      }
    }
  }
}
node {
  name: "dynamic_seq2seq/encoder/bidirectional_rnn/fw/fw/DeviceWrapperZeroState/DropoutWrapperZeroState/BasicLSTMCellZeroState/zeros"
  op: "Fill"
  input: "dynamic_seq2seq/encoder/bidirectional_rnn/fw/fw/DeviceWrapperZeroState/DropoutWrapperZeroState/BasicLSTMCellZeroState/concat"
  input: "dynamic_seq2seq/encoder/bidirectional_rnn/fw/fw/DeviceWrapperZeroState/DropoutWrapperZeroState/BasicLSTMCellZeroState/zeros/Const"
  device: "/device:GPU:0"
  attr {
    key: "T"
    value {
      type: DT_FLOAT
    }
  }
  attr {
    key: "_output_shapes"
    value {
      list {
        shape {
          dim {
            size: -1
          }
          dim {
            size: 1024
          }
        }
      }
    }
  }
}
node {
  name: "dynamic_seq2seq/encoder/bidirectional_rnn/fw/fw/DeviceWrapperZeroState/DropoutWrapperZeroState/BasicLSTMCellZeroState/ExpandDims_1/dim"
  op: "Const"
  device: "/device:GPU:0"
  attr {
    key: "_output_shapes"
    value {
      list {
        shape {
        }
      }
    }
  }
  attr {
    key: "dtype"
    value {
      type: DT_INT32
    }
  }
  attr {
    key: "value"
    value {
      tensor {
        dtype: DT_INT32
        tensor_shape {
        }
        int_val: 0
      }
    }
  }
}
node {
  name: "dynamic_seq2seq/encoder/bidirectional_rnn/fw/fw/DeviceWrapperZeroState/DropoutWrapperZeroState/BasicLSTMCellZeroState/ExpandDims_1"
  op: "ExpandDims"
  input: "dynamic_seq2seq/encoder/bidirectional_rnn/fw/fw/strided_slice"
  input: "dynamic_seq2seq/encoder/bidirectional_rnn/fw/fw/DeviceWrapperZeroState/DropoutWrapperZeroState/BasicLSTMCellZeroState/ExpandDims_1/dim"
  device: "/device:GPU:0"
  attr {
    key: "T"
    value {
      type: DT_INT32
    }
  }
  attr {
    key: "Tdim"
    value {
      type: DT_INT32
    }
  }
  attr {
    key: "_output_shapes"
    value {
      list {
        shape {
          dim {
            size: 1
          }
        }
      }
    }
  }
}
node {
  name: "dynamic_seq2seq/encoder/bidirectional_rnn/fw/fw/DeviceWrapperZeroState/DropoutWrapperZeroState/BasicLSTMCellZeroState/Const_1"
  op: "Const"
  device: "/device:GPU:0"
  attr {
    key: "_output_shapes"
    value {
      list {
        shape {
          dim {
            size: 1
          }
        }
      }
    }
  }
  attr {
    key: "dtype"
    value {
      type: DT_INT32
    }
  }
  attr {
    key: "value"
    value {
      tensor {
        dtype: DT_INT32
        tensor_shape {
          dim {
            size: 1
          }
        }
        int_val: 1024
      }
    }
  }
}
node {
  name: "dynamic_seq2seq/encoder/bidirectional_rnn/fw/fw/DeviceWrapperZeroState/DropoutWrapperZeroState/BasicLSTMCellZeroState/ExpandDims_2/dim"
  op: "Const"
  device: "/device:GPU:0"
  attr {
    key: "_output_shapes"
    value {
      list {
        shape {
        }
      }
    }
  }
  attr {
    key: "dtype"
    value {
      type: DT_INT32
    }
  }
  attr {
    key: "value"
    value {
      tensor {
        dtype: DT_INT32
        tensor_shape {
        }
        int_val: 0
      }
    }
  }
}
node {
  name: "dynamic_seq2seq/encoder/bidirectional_rnn/fw/fw/DeviceWrapperZeroState/DropoutWrapperZeroState/BasicLSTMCellZeroState/ExpandDims_2"
  op: "ExpandDims"
  input: "dynamic_seq2seq/encoder/bidirectional_rnn/fw/fw/strided_slice"
  input: "dynamic_seq2seq/encoder/bidirectional_rnn/fw/fw/DeviceWrapperZeroState/DropoutWrapperZeroState/BasicLSTMCellZeroState/ExpandDims_2/dim"
  device: "/device:GPU:0"
  attr {
    key: "T"
    value {
      type: DT_INT32
    }
  }
  attr {
    key: "Tdim"
    value {
      type: DT_INT32
    }
  }
  attr {
    key: "_output_shapes"
    value {
      list {
        shape {
          dim {
            size: 1
          }
        }
      }
    }
  }
}
node {
  name: "dynamic_seq2seq/encoder/bidirectional_rnn/fw/fw/DeviceWrapperZeroState/DropoutWrapperZeroState/BasicLSTMCellZeroState/Const_2"
  op: "Const"
  device: "/device:GPU:0"
  attr {
    key: "_output_shapes"
    value {
      list {
        shape {
          dim {
            size: 1
          }
        }
      }
    }
  }
  attr {
    key: "dtype"
    value {
      type: DT_INT32
    }
  }
  attr {
    key: "value"
    value {
      tensor {
        dtype: DT_INT32
        tensor_shape {
          dim {
            size: 1
          }
        }
        int_val: 1024
      }
    }
  }
}
node {
  name: "dynamic_seq2seq/encoder/bidirectional_rnn/fw/fw/DeviceWrapperZeroState/DropoutWrapperZeroState/BasicLSTMCellZeroState/concat_1/axis"
  op: "Const"
  device: "/device:GPU:0"
  attr {
    key: "_output_shapes"
    value {
      list {
        shape {
        }
      }
    }
  }
  attr {
    key: "dtype"
    value {
      type: DT_INT32
    }
  }
  attr {
    key: "value"
    value {
      tensor {
        dtype: DT_INT32
        tensor_shape {
        }
        int_val: 0
      }
    }
  }
}
node {
  name: "dynamic_seq2seq/encoder/bidirectional_rnn/fw/fw/DeviceWrapperZeroState/DropoutWrapperZeroState/BasicLSTMCellZeroState/concat_1"
  op: "ConcatV2"
  input: "dynamic_seq2seq/encoder/bidirectional_rnn/fw/fw/DeviceWrapperZeroState/DropoutWrapperZeroState/BasicLSTMCellZeroState/ExpandDims_2"
  input: "dynamic_seq2seq/encoder/bidirectional_rnn/fw/fw/DeviceWrapperZeroState/DropoutWrapperZeroState/BasicLSTMCellZeroState/Const_2"
  input: "dynamic_seq2seq/encoder/bidirectional_rnn/fw/fw/DeviceWrapperZeroState/DropoutWrapperZeroState/BasicLSTMCellZeroState/concat_1/axis"
  device: "/device:GPU:0"
  attr {
    key: "N"
    value {
      i: 2
    }
  }
  attr {
    key: "T"
    value {
      type: DT_INT32
    }
  }
  attr {
    key: "Tidx"
    value {
      type: DT_INT32
    }
  }
  attr {
    key: "_output_shapes"
    value {
      list {
        shape {
          dim {
            size: 2
          }
        }
      }
    }
  }
}
node {
  name: "dynamic_seq2seq/encoder/bidirectional_rnn/fw/fw/DeviceWrapperZeroState/DropoutWrapperZeroState/BasicLSTMCellZeroState/zeros_1/Const"
  op: "Const"
  device: "/device:GPU:0"
  attr {
    key: "_output_shapes"
    value {
      list {
        shape {
        }
      }
    }
  }
  attr {
    key: "dtype"
    value {
      type: DT_FLOAT
    }
  }
  attr {
    key: "value"
    value {
      tensor {
        dtype: DT_FLOAT
        tensor_shape {
        }
        float_val: 0.0
      }
    }
  }
}
node {
  name: "dynamic_seq2seq/encoder/bidirectional_rnn/fw/fw/DeviceWrapperZeroState/DropoutWrapperZeroState/BasicLSTMCellZeroState/zeros_1"
  op: "Fill"
  input: "dynamic_seq2seq/encoder/bidirectional_rnn/fw/fw/DeviceWrapperZeroState/DropoutWrapperZeroState/BasicLSTMCellZeroState/concat_1"
  input: "dynamic_seq2seq/encoder/bidirectional_rnn/fw/fw/DeviceWrapperZeroState/DropoutWrapperZeroState/BasicLSTMCellZeroState/zeros_1/Const"
  device: "/device:GPU:0"
  attr {
    key: "T"
    value {
      type: DT_FLOAT
    }
  }
  attr {
    key: "_output_shapes"
    value {
      list {
        shape {
          dim {
            size: -1
          }
          dim {
            size: 1024
          }
        }
      }
    }
  }
}
node {
  name: "dynamic_seq2seq/encoder/bidirectional_rnn/fw/fw/DeviceWrapperZeroState/DropoutWrapperZeroState/BasicLSTMCellZeroState/ExpandDims_3/dim"
  op: "Const"
  device: "/device:GPU:0"
  attr {
    key: "_output_shapes"
    value {
      list {
        shape {
        }
      }
    }
  }
  attr {
    key: "dtype"
    value {
      type: DT_INT32
    }
  }
  attr {
    key: "value"
    value {
      tensor {
        dtype: DT_INT32
        tensor_shape {
        }
        int_val: 0
      }
    }
  }
}
node {
  name: "dynamic_seq2seq/encoder/bidirectional_rnn/fw/fw/DeviceWrapperZeroState/DropoutWrapperZeroState/BasicLSTMCellZeroState/ExpandDims_3"
  op: "ExpandDims"
  input: "dynamic_seq2seq/encoder/bidirectional_rnn/fw/fw/strided_slice"
  input: "dynamic_seq2seq/encoder/bidirectional_rnn/fw/fw/DeviceWrapperZeroState/DropoutWrapperZeroState/BasicLSTMCellZeroState/ExpandDims_3/dim"
  device: "/device:GPU:0"
  attr {
    key: "T"
    value {
      type: DT_INT32
    }
  }
  attr {
    key: "Tdim"
    value {
      type: DT_INT32
    }
  }
  attr {
    key: "_output_shapes"
    value {
      list {
        shape {
          dim {
            size: 1
          }
        }
      }
    }
  }
}
node {
  name: "dynamic_seq2seq/encoder/bidirectional_rnn/fw/fw/DeviceWrapperZeroState/DropoutWrapperZeroState/BasicLSTMCellZeroState/Const_3"
  op: "Const"
  device: "/device:GPU:0"
  attr {
    key: "_output_shapes"
    value {
      list {
        shape {
          dim {
            size: 1
          }
        }
      }
    }
  }
  attr {
    key: "dtype"
    value {
      type: DT_INT32
    }
  }
  attr {
    key: "value"
    value {
      tensor {
        dtype: DT_INT32
        tensor_shape {
          dim {
            size: 1
          }
        }
        int_val: 1024
      }
    }
  }
}
node {
  name: "dynamic_seq2seq/encoder/bidirectional_rnn/fw/fw/Shape_1"
  op: "Shape"
  input: "dynamic_seq2seq/encoder/bidirectional_rnn/fw/sequence_length"
  attr {
    key: "T"
    value {
      type: DT_INT32
    }
  }
  attr {
    key: "_output_shapes"
    value {
      list {
        shape {
          dim {
            size: 1
          }
        }
      }
    }
  }
  attr {
    key: "out_type"
    value {
      type: DT_INT32
    }
  }
}
node {
  name: "dynamic_seq2seq/encoder/bidirectional_rnn/fw/fw/stack"
  op: "Pack"
  input: "dynamic_seq2seq/encoder/bidirectional_rnn/fw/fw/strided_slice"
  attr {
    key: "N"
    value {
      i: 1
    }
  }
  attr {
    key: "T"
    value {
      type: DT_INT32
    }
  }
  attr {
    key: "_output_shapes"
    value {
      list {
        shape {
          dim {
            size: 1
          }
        }
      }
    }
  }
  attr {
    key: "axis"
    value {
      i: 0
    }
  }
}
node {
  name: "dynamic_seq2seq/encoder/bidirectional_rnn/fw/fw/Equal"
  op: "Equal"
  input: "dynamic_seq2seq/encoder/bidirectional_rnn/fw/fw/Shape_1"
  input: "dynamic_seq2seq/encoder/bidirectional_rnn/fw/fw/stack"
  attr {
    key: "T"
    value {
      type: DT_INT32
    }
  }
  attr {
    key: "_output_shapes"
    value {
      list {
        shape {
          dim {
            size: 1
          }
        }
      }
    }
  }
}
node {
  name: "dynamic_seq2seq/encoder/bidirectional_rnn/fw/fw/Const"
  op: "Const"
  attr {
    key: "_output_shapes"
    value {
      list {
        shape {
          dim {
            size: 1
          }
        }
      }
    }
  }
  attr {
    key: "dtype"
    value {
      type: DT_INT32
    }
  }
  attr {
    key: "value"
    value {
      tensor {
        dtype: DT_INT32
        tensor_shape {
          dim {
            size: 1
          }
        }
        int_val: 0
      }
    }
  }
}
node {
  name: "dynamic_seq2seq/encoder/bidirectional_rnn/fw/fw/All"
  op: "All"
  input: "dynamic_seq2seq/encoder/bidirectional_rnn/fw/fw/Equal"
  input: "dynamic_seq2seq/encoder/bidirectional_rnn/fw/fw/Const"
  attr {
    key: "Tidx"
    value {
      type: DT_INT32
    }
  }
  attr {
    key: "_output_shapes"
    value {
      list {
        shape {
        }
      }
    }
  }
  attr {
    key: "keep_dims"
    value {
      b: false
    }
  }
}
node {
  name: "dynamic_seq2seq/encoder/bidirectional_rnn/fw/fw/Assert/Const"
  op: "Const"
  attr {
    key: "_output_shapes"
    value {
      list {
        shape {
        }
      }
    }
  }
  attr {
    key: "dtype"
    value {
      type: DT_STRING
    }
  }
  attr {
    key: "value"
    value {
      tensor {
        dtype: DT_STRING
        tensor_shape {
        }
        string_val: "Expected shape for Tensor dynamic_seq2seq/encoder/bidirectional_rnn/fw/sequence_length:0 is "
      }
    }
  }
}
node {
  name: "dynamic_seq2seq/encoder/bidirectional_rnn/fw/fw/Assert/Const_1"
  op: "Const"
  attr {
    key: "_output_shapes"
    value {
      list {
        shape {
        }
      }
    }
  }
  attr {
    key: "dtype"
    value {
      type: DT_STRING
    }
  }
  attr {
    key: "value"
    value {
      tensor {
        dtype: DT_STRING
        tensor_shape {
        }
        string_val: " but saw shape: "
      }
    }
  }
}
node {
  name: "dynamic_seq2seq/encoder/bidirectional_rnn/fw/fw/Assert/Assert/data_0"
  op: "Const"
  attr {
    key: "_output_shapes"
    value {
      list {
        shape {
        }
      }
    }
  }
  attr {
    key: "dtype"
    value {
      type: DT_STRING
    }
  }
  attr {
    key: "value"
    value {
      tensor {
        dtype: DT_STRING
        tensor_shape {
        }
        string_val: "Expected shape for Tensor dynamic_seq2seq/encoder/bidirectional_rnn/fw/sequence_length:0 is "
      }
    }
  }
}
node {
  name: "dynamic_seq2seq/encoder/bidirectional_rnn/fw/fw/Assert/Assert/data_2"
  op: "Const"
  attr {
    key: "_output_shapes"
    value {
      list {
        shape {
        }
      }
    }
  }
  attr {
    key: "dtype"
    value {
      type: DT_STRING
    }
  }
  attr {
    key: "value"
    value {
      tensor {
        dtype: DT_STRING
        tensor_shape {
        }
        string_val: " but saw shape: "
      }
    }
  }
}
node {
  name: "dynamic_seq2seq/encoder/bidirectional_rnn/fw/fw/Assert/Assert"
  op: "Assert"
  input: "dynamic_seq2seq/encoder/bidirectional_rnn/fw/fw/All"
  input: "dynamic_seq2seq/encoder/bidirectional_rnn/fw/fw/Assert/Assert/data_0"
  input: "dynamic_seq2seq/encoder/bidirectional_rnn/fw/fw/stack"
  input: "dynamic_seq2seq/encoder/bidirectional_rnn/fw/fw/Assert/Assert/data_2"
  input: "dynamic_seq2seq/encoder/bidirectional_rnn/fw/fw/Shape_1"
  attr {
    key: "T"
    value {
      list {
        type: DT_STRING
        type: DT_INT32
        type: DT_STRING
        type: DT_INT32
      }
    }
  }
  attr {
    key: "summarize"
    value {
      i: 3
    }
  }
}
node {
  name: "dynamic_seq2seq/encoder/bidirectional_rnn/fw/fw/CheckSeqLen"
  op: "Identity"
  input: "dynamic_seq2seq/encoder/bidirectional_rnn/fw/sequence_length"
  input: "^dynamic_seq2seq/encoder/bidirectional_rnn/fw/fw/Assert/Assert"
  attr {
    key: "T"
    value {
      type: DT_INT32
    }
  }
  attr {
    key: "_output_shapes"
    value {
      list {
        shape {
          dim {
            size: -1
          }
        }
      }
    }
  }
}
node {
  name: "dynamic_seq2seq/encoder/bidirectional_rnn/fw/fw/Shape_2"
  op: "Shape"
  input: "dynamic_seq2seq/encoder/embedding_lookup"
  attr {
    key: "T"
    value {
      type: DT_FLOAT
    }
  }
  attr {
    key: "_output_shapes"
    value {
      list {
        shape {
          dim {
            size: 3
          }
        }
      }
    }
  }
  attr {
    key: "out_type"
    value {
      type: DT_INT32
    }
  }
}
node {
  name: "dynamic_seq2seq/encoder/bidirectional_rnn/fw/fw/strided_slice_1/stack"
  op: "Const"
  attr {
    key: "_output_shapes"
    value {
      list {
        shape {
          dim {
            size: 1
          }
        }
      }
    }
  }
  attr {
    key: "dtype"
    value {
      type: DT_INT32
    }
  }
  attr {
    key: "value"
    value {
      tensor {
        dtype: DT_INT32
        tensor_shape {
          dim {
            size: 1
          }
        }
        int_val: 0
      }
    }
  }
}
node {
  name: "dynamic_seq2seq/encoder/bidirectional_rnn/fw/fw/strided_slice_1/stack_1"
  op: "Const"
  attr {
    key: "_output_shapes"
    value {
      list {
        shape {
          dim {
            size: 1
          }
        }
      }
    }
  }
  attr {
    key: "dtype"
    value {
      type: DT_INT32
    }
  }
  attr {
    key: "value"
    value {
      tensor {
        dtype: DT_INT32
        tensor_shape {
          dim {
            size: 1
          }
        }
        int_val: 1
      }
    }
  }
}
node {
  name: "dynamic_seq2seq/encoder/bidirectional_rnn/fw/fw/strided_slice_1/stack_2"
  op: "Const"
  attr {
    key: "_output_shapes"
    value {
      list {
        shape {
          dim {
            size: 1
          }
        }
      }
    }
  }
  attr {
    key: "dtype"
    value {
      type: DT_INT32
    }
  }
  attr {
    key: "value"
    value {
      tensor {
        dtype: DT_INT32
        tensor_shape {
          dim {
            size: 1
          }
        }
        int_val: 1
      }
    }
  }
}
node {
  name: "dynamic_seq2seq/encoder/bidirectional_rnn/fw/fw/strided_slice_1"
  op: "StridedSlice"
  input: "dynamic_seq2seq/encoder/bidirectional_rnn/fw/fw/Shape_2"
  input: "dynamic_seq2seq/encoder/bidirectional_rnn/fw/fw/strided_slice_1/stack"
  input: "dynamic_seq2seq/encoder/bidirectional_rnn/fw/fw/strided_slice_1/stack_1"
  input: "dynamic_seq2seq/encoder/bidirectional_rnn/fw/fw/strided_slice_1/stack_2"
  attr {
    key: "Index"
    value {
      type: DT_INT32
    }
  }
  attr {
    key: "T"
    value {
      type: DT_INT32
    }
  }
  attr {
    key: "_output_shapes"
    value {
      list {
        shape {
        }
      }
    }
  }
  attr {
    key: "begin_mask"
    value {
      i: 0
    }
  }
  attr {
    key: "ellipsis_mask"
    value {
      i: 0
    }
  }
  attr {
    key: "end_mask"
    value {
      i: 0
    }
  }
  attr {
    key: "new_axis_mask"
    value {
      i: 0
    }
  }
  attr {
    key: "shrink_axis_mask"
    value {
      i: 1
    }
  }
}
node {
  name: "dynamic_seq2seq/encoder/bidirectional_rnn/fw/fw/Shape_3"
  op: "Shape"
  input: "dynamic_seq2seq/encoder/embedding_lookup"
  attr {
    key: "T"
    value {
      type: DT_FLOAT
    }
  }
  attr {
    key: "_output_shapes"
    value {
      list {
        shape {
          dim {
            size: 3
          }
        }
      }
    }
  }
  attr {
    key: "out_type"
    value {
      type: DT_INT32
    }
  }
}
node {
  name: "dynamic_seq2seq/encoder/bidirectional_rnn/fw/fw/strided_slice_2/stack"
  op: "Const"
  attr {
    key: "_output_shapes"
    value {
      list {
        shape {
          dim {
            size: 1
          }
        }
      }
    }
  }
  attr {
    key: "dtype"
    value {
      type: DT_INT32
    }
  }
  attr {
    key: "value"
    value {
      tensor {
        dtype: DT_INT32
        tensor_shape {
          dim {
            size: 1
          }
        }
        int_val: 1
      }
    }
  }
}
node {
  name: "dynamic_seq2seq/encoder/bidirectional_rnn/fw/fw/strided_slice_2/stack_1"
  op: "Const"
  attr {
    key: "_output_shapes"
    value {
      list {
        shape {
          dim {
            size: 1
          }
        }
      }
    }
  }
  attr {
    key: "dtype"
    value {
      type: DT_INT32
    }
  }
  attr {
    key: "value"
    value {
      tensor {
        dtype: DT_INT32
        tensor_shape {
          dim {
            size: 1
          }
        }
        int_val: 2
      }
    }
  }
}
node {
  name: "dynamic_seq2seq/encoder/bidirectional_rnn/fw/fw/strided_slice_2/stack_2"
  op: "Const"
  attr {
    key: "_output_shapes"
    value {
      list {
        shape {
          dim {
            size: 1
          }
        }
      }
    }
  }
  attr {
    key: "dtype"
    value {
      type: DT_INT32
    }
  }
  attr {
    key: "value"
    value {
      tensor {
        dtype: DT_INT32
        tensor_shape {
          dim {
            size: 1
          }
        }
        int_val: 1
      }
    }
  }
}
node {
  name: "dynamic_seq2seq/encoder/bidirectional_rnn/fw/fw/strided_slice_2"
  op: "StridedSlice"
  input: "dynamic_seq2seq/encoder/bidirectional_rnn/fw/fw/Shape_3"
  input: "dynamic_seq2seq/encoder/bidirectional_rnn/fw/fw/strided_slice_2/stack"
  input: "dynamic_seq2seq/encoder/bidirectional_rnn/fw/fw/strided_slice_2/stack_1"
  input: "dynamic_seq2seq/encoder/bidirectional_rnn/fw/fw/strided_slice_2/stack_2"
  attr {
    key: "Index"
    value {
      type: DT_INT32
    }
  }
  attr {
    key: "T"
    value {
      type: DT_INT32
    }
  }
  attr {
    key: "_output_shapes"
    value {
      list {
        shape {
        }
      }
    }
  }
  attr {
    key: "begin_mask"
    value {
      i: 0
    }
  }
  attr {
    key: "ellipsis_mask"
    value {
      i: 0
    }
  }
  attr {
    key: "end_mask"
    value {
      i: 0
    }
  }
  attr {
    key: "new_axis_mask"
    value {
      i: 0
    }
  }
  attr {
    key: "shrink_axis_mask"
    value {
      i: 1
    }
  }
}
node {
  name: "dynamic_seq2seq/encoder/bidirectional_rnn/fw/fw/ExpandDims/dim"
  op: "Const"
  attr {
    key: "_output_shapes"
    value {
      list {
        shape {
        }
      }
    }
  }
  attr {
    key: "dtype"
    value {
      type: DT_INT32
    }
  }
  attr {
    key: "value"
    value {
      tensor {
        dtype: DT_INT32
        tensor_shape {
        }
        int_val: 0
      }
    }
  }
}
node {
  name: "dynamic_seq2seq/encoder/bidirectional_rnn/fw/fw/ExpandDims"
  op: "ExpandDims"
  input: "dynamic_seq2seq/encoder/bidirectional_rnn/fw/fw/strided_slice_2"
  input: "dynamic_seq2seq/encoder/bidirectional_rnn/fw/fw/ExpandDims/dim"
  attr {
    key: "T"
    value {
      type: DT_INT32
    }
  }
  attr {
    key: "Tdim"
    value {
      type: DT_INT32
    }
  }
  attr {
    key: "_output_shapes"
    value {
      list {
        shape {
          dim {
            size: 1
          }
        }
      }
    }
  }
}
node {
  name: "dynamic_seq2seq/encoder/bidirectional_rnn/fw/fw/Const_1"
  op: "Const"
  attr {
    key: "_output_shapes"
    value {
      list {
        shape {
          dim {
            size: 1
          }
        }
      }
    }
  }
  attr {
    key: "dtype"
    value {
      type: DT_INT32
    }
  }
  attr {
    key: "value"
    value {
      tensor {
        dtype: DT_INT32
        tensor_shape {
          dim {
            size: 1
          }
        }
        int_val: 1024
      }
    }
  }
}
node {
  name: "dynamic_seq2seq/encoder/bidirectional_rnn/fw/fw/concat/axis"
  op: "Const"
  attr {
    key: "_output_shapes"
    value {
      list {
        shape {
        }
      }
    }
  }
  attr {
    key: "dtype"
    value {
      type: DT_INT32
    }
  }
  attr {
    key: "value"
    value {
      tensor {
        dtype: DT_INT32
        tensor_shape {
        }
        int_val: 0
      }
    }
  }
}
node {
  name: "dynamic_seq2seq/encoder/bidirectional_rnn/fw/fw/concat"
  op: "ConcatV2"
  input: "dynamic_seq2seq/encoder/bidirectional_rnn/fw/fw/ExpandDims"
  input: "dynamic_seq2seq/encoder/bidirectional_rnn/fw/fw/Const_1"
  input: "dynamic_seq2seq/encoder/bidirectional_rnn/fw/fw/concat/axis"
  attr {
    key: "N"
    value {
      i: 2
    }
  }
  attr {
    key: "T"
    value {
      type: DT_INT32
    }
  }
  attr {
    key: "Tidx"
    value {
      type: DT_INT32
    }
  }
  attr {
    key: "_output_shapes"
    value {
      list {
        shape {
          dim {
            size: 2
          }
        }
      }
    }
  }
}
node {
  name: "dynamic_seq2seq/encoder/bidirectional_rnn/fw/fw/zeros/Const"
  op: "Const"
  attr {
    key: "_output_shapes"
    value {
      list {
        shape {
        }
      }
    }
  }
  attr {
    key: "dtype"
    value {
      type: DT_FLOAT
    }
  }
  attr {
    key: "value"
    value {
      tensor {
        dtype: DT_FLOAT
        tensor_shape {
        }
        float_val: 0.0
      }
    }
  }
}
node {
  name: "dynamic_seq2seq/encoder/bidirectional_rnn/fw/fw/zeros"
  op: "Fill"
  input: "dynamic_seq2seq/encoder/bidirectional_rnn/fw/fw/concat"
  input: "dynamic_seq2seq/encoder/bidirectional_rnn/fw/fw/zeros/Const"
  attr {
    key: "T"
    value {
      type: DT_FLOAT
    }
  }
  attr {
    key: "_output_shapes"
    value {
      list {
        shape {
          dim {
            size: -1
          }
          dim {
            size: 1024
          }
        }
      }
    }
  }
}
node {
  name: "dynamic_seq2seq/encoder/bidirectional_rnn/fw/fw/Const_2"
  op: "Const"
  attr {
    key: "_output_shapes"
    value {
      list {
        shape {
          dim {
            size: 1
          }
        }
      }
    }
  }
  attr {
    key: "dtype"
    value {
      type: DT_INT32
    }
  }
  attr {
    key: "value"
    value {
      tensor {
        dtype: DT_INT32
        tensor_shape {
          dim {
            size: 1
          }
        }
        int_val: 0
      }
    }
  }
}
node {
  name: "dynamic_seq2seq/encoder/bidirectional_rnn/fw/fw/Min"
  op: "Min"
  input: "dynamic_seq2seq/encoder/bidirectional_rnn/fw/fw/CheckSeqLen"
  input: "dynamic_seq2seq/encoder/bidirectional_rnn/fw/fw/Const_2"
  attr {
    key: "T"
    value {
      type: DT_INT32
    }
  }
  attr {
    key: "Tidx"
    value {
      type: DT_INT32
    }
  }
  attr {
    key: "_output_shapes"
    value {
      list {
        shape {
        }
      }
    }
  }
  attr {
    key: "keep_dims"
    value {
      b: false
    }
  }
}
node {
  name: "dynamic_seq2seq/encoder/bidirectional_rnn/fw/fw/Const_3"
  op: "Const"
  attr {
    key: "_output_shapes"
    value {
      list {
        shape {
          dim {
            size: 1
          }
        }
      }
    }
  }
  attr {
    key: "dtype"
    value {
      type: DT_INT32
    }
  }
  attr {
    key: "value"
    value {
      tensor {
        dtype: DT_INT32
        tensor_shape {
          dim {
            size: 1
          }
        }
        int_val: 0
      }
    }
  }
}
node {
  name: "dynamic_seq2seq/encoder/bidirectional_rnn/fw/fw/Max"
  op: "Max"
  input: "dynamic_seq2seq/encoder/bidirectional_rnn/fw/fw/CheckSeqLen"
  input: "dynamic_seq2seq/encoder/bidirectional_rnn/fw/fw/Const_3"
  attr {
    key: "T"
    value {
      type: DT_INT32
    }
  }
  attr {
    key: "Tidx"
    value {
      type: DT_INT32
    }
  }
  attr {
    key: "_output_shapes"
    value {
      list {
        shape {
        }
      }
    }
  }
  attr {
    key: "keep_dims"
    value {
      b: false
    }
  }
}
node {
  name: "dynamic_seq2seq/encoder/bidirectional_rnn/fw/fw/time"
  op: "Const"
  attr {
    key: "_output_shapes"
    value {
      list {
        shape {
        }
      }
    }
  }
  attr {
    key: "dtype"
    value {
      type: DT_INT32
    }
  }
  attr {
    key: "value"
    value {
      tensor {
        dtype: DT_INT32
        tensor_shape {
        }
        int_val: 0
      }
    }
  }
}
node {
  name: "dynamic_seq2seq/encoder/bidirectional_rnn/fw/fw/TensorArray"
  op: "TensorArrayV3"
  input: "dynamic_seq2seq/encoder/bidirectional_rnn/fw/fw/strided_slice_1"
  attr {
    key: "_output_shapes"
    value {
      list {
        shape {
          dim {
            size: 2
          }
        }
        shape {
        }
      }
    }
  }
  attr {
    key: "clear_after_read"
    value {
      b: true
    }
  }
  attr {
    key: "dtype"
    value {
      type: DT_FLOAT
    }
  }
  attr {
    key: "dynamic_size"
    value {
      b: false
    }
  }
  attr {
    key: "element_shape"
    value {
      shape {
        unknown_rank: true
      }
    }
  }
  attr {
    key: "tensor_array_name"
    value {
      s: "dynamic_seq2seq/encoder/bidirectional_rnn/fw/fw/dynamic_rnn/output_0"
    }
  }
}
node {
  name: "dynamic_seq2seq/encoder/bidirectional_rnn/fw/fw/TensorArray_1"
  op: "TensorArrayV3"
  input: "dynamic_seq2seq/encoder/bidirectional_rnn/fw/fw/strided_slice_1"
  attr {
    key: "_output_shapes"
    value {
      list {
        shape {
          dim {
            size: 2
          }
        }
        shape {
        }
      }
    }
  }
  attr {
    key: "clear_after_read"
    value {
      b: true
    }
  }
  attr {
    key: "dtype"
    value {
      type: DT_FLOAT
    }
  }
  attr {
    key: "dynamic_size"
    value {
      b: false
    }
  }
  attr {
    key: "element_shape"
    value {
      shape {
        unknown_rank: true
      }
    }
  }
  attr {
    key: "tensor_array_name"
    value {
      s: "dynamic_seq2seq/encoder/bidirectional_rnn/fw/fw/dynamic_rnn/input_0"
    }
  }
}
node {
  name: "dynamic_seq2seq/encoder/bidirectional_rnn/fw/fw/TensorArrayUnstack/Shape"
  op: "Shape"
  input: "dynamic_seq2seq/encoder/embedding_lookup"
  attr {
    key: "T"
    value {
      type: DT_FLOAT
    }
  }
  attr {
    key: "_output_shapes"
    value {
      list {
        shape {
          dim {
            size: 3
          }
        }
      }
    }
  }
  attr {
    key: "out_type"
    value {
      type: DT_INT32
    }
  }
}
node {
  name: "dynamic_seq2seq/encoder/bidirectional_rnn/fw/fw/TensorArrayUnstack/strided_slice/stack"
  op: "Const"
  attr {
    key: "_output_shapes"
    value {
      list {
        shape {
          dim {
            size: 1
          }
        }
      }
    }
  }
  attr {
    key: "dtype"
    value {
      type: DT_INT32
    }
  }
  attr {
    key: "value"
    value {
      tensor {
        dtype: DT_INT32
        tensor_shape {
          dim {
            size: 1
          }
        }
        int_val: 0
      }
    }
  }
}
node {
  name: "dynamic_seq2seq/encoder/bidirectional_rnn/fw/fw/TensorArrayUnstack/strided_slice/stack_1"
  op: "Const"
  attr {
    key: "_output_shapes"
    value {
      list {
        shape {
          dim {
            size: 1
          }
        }
      }
    }
  }
  attr {
    key: "dtype"
    value {
      type: DT_INT32
    }
  }
  attr {
    key: "value"
    value {
      tensor {
        dtype: DT_INT32
        tensor_shape {
          dim {
            size: 1
          }
        }
        int_val: 1
      }
    }
  }
}
node {
  name: "dynamic_seq2seq/encoder/bidirectional_rnn/fw/fw/TensorArrayUnstack/strided_slice/stack_2"
  op: "Const"
  attr {
    key: "_output_shapes"
    value {
      list {
        shape {
          dim {
            size: 1
          }
        }
      }
    }
  }
  attr {
    key: "dtype"
    value {
      type: DT_INT32
    }
  }
  attr {
    key: "value"
    value {
      tensor {
        dtype: DT_INT32
        tensor_shape {
          dim {
            size: 1
          }
        }
        int_val: 1
      }
    }
  }
}
node {
  name: "dynamic_seq2seq/encoder/bidirectional_rnn/fw/fw/TensorArrayUnstack/strided_slice"
  op: "StridedSlice"
  input: "dynamic_seq2seq/encoder/bidirectional_rnn/fw/fw/TensorArrayUnstack/Shape"
  input: "dynamic_seq2seq/encoder/bidirectional_rnn/fw/fw/TensorArrayUnstack/strided_slice/stack"
  input: "dynamic_seq2seq/encoder/bidirectional_rnn/fw/fw/TensorArrayUnstack/strided_slice/stack_1"
  input: "dynamic_seq2seq/encoder/bidirectional_rnn/fw/fw/TensorArrayUnstack/strided_slice/stack_2"
  attr {
    key: "Index"
    value {
      type: DT_INT32
    }
  }
  attr {
    key: "T"
    value {
      type: DT_INT32
    }
  }
  attr {
    key: "_output_shapes"
    value {
      list {
        shape {
        }
      }
    }
  }
  attr {
    key: "begin_mask"
    value {
      i: 0
    }
  }
  attr {
    key: "ellipsis_mask"
    value {
      i: 0
    }
  }
  attr {
    key: "end_mask"
    value {
      i: 0
    }
  }
  attr {
    key: "new_axis_mask"
    value {
      i: 0
    }
  }
  attr {
    key: "shrink_axis_mask"
    value {
      i: 1
    }
  }
}
node {
  name: "dynamic_seq2seq/encoder/bidirectional_rnn/fw/fw/TensorArrayUnstack/range/start"
  op: "Const"
  attr {
    key: "_output_shapes"
    value {
      list {
        shape {
        }
      }
    }
  }
  attr {
    key: "dtype"
    value {
      type: DT_INT32
    }
  }
  attr {
    key: "value"
    value {
      tensor {
        dtype: DT_INT32
        tensor_shape {
        }
        int_val: 0
      }
    }
  }
}
node {
  name: "dynamic_seq2seq/encoder/bidirectional_rnn/fw/fw/TensorArrayUnstack/range/delta"
  op: "Const"
  attr {
    key: "_output_shapes"
    value {
      list {
        shape {
        }
      }
    }
  }
  attr {
    key: "dtype"
    value {
      type: DT_INT32
    }
  }
  attr {
    key: "value"
    value {
      tensor {
        dtype: DT_INT32
        tensor_shape {
        }
        int_val: 1
      }
    }
  }
}
node {
  name: "dynamic_seq2seq/encoder/bidirectional_rnn/fw/fw/TensorArrayUnstack/range"
  op: "Range"
  input: "dynamic_seq2seq/encoder/bidirectional_rnn/fw/fw/TensorArrayUnstack/range/start"
  input: "dynamic_seq2seq/encoder/bidirectional_rnn/fw/fw/TensorArrayUnstack/strided_slice"
  input: "dynamic_seq2seq/encoder/bidirectional_rnn/fw/fw/TensorArrayUnstack/range/delta"
  attr {
    key: "Tidx"
    value {
      type: DT_INT32
    }
  }
  attr {
    key: "_output_shapes"
    value {
      list {
        shape {
          dim {
            size: -1
          }
        }
      }
    }
  }
}
node {
  name: "dynamic_seq2seq/encoder/bidirectional_rnn/fw/fw/TensorArrayUnstack/TensorArrayScatter/TensorArrayScatterV3"
  op: "TensorArrayScatterV3"
  input: "dynamic_seq2seq/encoder/bidirectional_rnn/fw/fw/TensorArray_1"
  input: "dynamic_seq2seq/encoder/bidirectional_rnn/fw/fw/TensorArrayUnstack/range"
  input: "dynamic_seq2seq/encoder/embedding_lookup"
  input: "dynamic_seq2seq/encoder/bidirectional_rnn/fw/fw/TensorArray_1:1"
  device: "/device:GPU:0"
  attr {
    key: "T"
    value {
      type: DT_FLOAT
    }
  }
  attr {
    key: "_class"
    value {
      list {
        s: "loc:@embeddings/encoder/embedding_encoder"
      }
    }
  }
  attr {
    key: "_output_shapes"
    value {
      list {
        shape {
        }
      }
    }
  }
}
node {
  name: "dynamic_seq2seq/encoder/bidirectional_rnn/fw/fw/while/Enter"
  op: "Enter"
  input: "dynamic_seq2seq/encoder/bidirectional_rnn/fw/fw/time"
  attr {
    key: "T"
    value {
      type: DT_INT32
    }
  }
  attr {
    key: "_output_shapes"
    value {
      list {
        shape {
        }
      }
    }
  }
  attr {
    key: "frame_name"
    value {
      s: "dynamic_seq2seq/encoder/bidirectional_rnn/fw/fw/while/while_context"
    }
  }
  attr {
    key: "is_constant"
    value {
      b: false
    }
  }
  attr {
    key: "parallel_iterations"
    value {
      i: 32
    }
  }
}
node {
  name: "dynamic_seq2seq/encoder/bidirectional_rnn/fw/fw/while/Enter_1"
  op: "Enter"
  input: "dynamic_seq2seq/encoder/bidirectional_rnn/fw/fw/TensorArray:1"
  attr {
    key: "T"
    value {
      type: DT_FLOAT
    }
  }
  attr {
    key: "_output_shapes"
    value {
      list {
        shape {
        }
      }
    }
  }
  attr {
    key: "frame_name"
    value {
      s: "dynamic_seq2seq/encoder/bidirectional_rnn/fw/fw/while/while_context"
    }
  }
  attr {
    key: "is_constant"
    value {
      b: false
    }
  }
  attr {
    key: "parallel_iterations"
    value {
      i: 32
    }
  }
}
node {
  name: "dynamic_seq2seq/encoder/bidirectional_rnn/fw/fw/while/Enter_2"
  op: "Enter"
  input: "dynamic_seq2seq/encoder/bidirectional_rnn/fw/fw/DeviceWrapperZeroState/DropoutWrapperZeroState/BasicLSTMCellZeroState/zeros"
  attr {
    key: "T"
    value {
      type: DT_FLOAT
    }
  }
  attr {
    key: "_output_shapes"
    value {
      list {
        shape {
          dim {
            size: -1
          }
          dim {
            size: 1024
          }
        }
      }
    }
  }
  attr {
    key: "frame_name"
    value {
      s: "dynamic_seq2seq/encoder/bidirectional_rnn/fw/fw/while/while_context"
    }
  }
  attr {
    key: "is_constant"
    value {
      b: false
    }
  }
  attr {
    key: "parallel_iterations"
    value {
      i: 32
    }
  }
}
node {
  name: "dynamic_seq2seq/encoder/bidirectional_rnn/fw/fw/while/Enter_3"
  op: "Enter"
  input: "dynamic_seq2seq/encoder/bidirectional_rnn/fw/fw/DeviceWrapperZeroState/DropoutWrapperZeroState/BasicLSTMCellZeroState/zeros_1"
  attr {
    key: "T"
    value {
      type: DT_FLOAT
    }
  }
  attr {
    key: "_output_shapes"
    value {
      list {
        shape {
          dim {
            size: -1
          }
          dim {
            size: 1024
          }
        }
      }
    }
  }
  attr {
    key: "frame_name"
    value {
      s: "dynamic_seq2seq/encoder/bidirectional_rnn/fw/fw/while/while_context"
    }
  }
  attr {
    key: "is_constant"
    value {
      b: false
    }
  }
  attr {
    key: "parallel_iterations"
    value {
      i: 32
    }
  }
}
node {
  name: "dynamic_seq2seq/encoder/bidirectional_rnn/fw/fw/while/Merge"
  op: "Merge"
  input: "dynamic_seq2seq/encoder/bidirectional_rnn/fw/fw/while/Enter"
  input: "dynamic_seq2seq/encoder/bidirectional_rnn/fw/fw/while/NextIteration"
  attr {
    key: "N"
    value {
      i: 2
    }
  }
  attr {
    key: "T"
    value {
      type: DT_INT32
    }
  }
  attr {
    key: "_output_shapes"
    value {
      list {
        shape {
        }
        shape {
        }
      }
    }
  }
}
node {
  name: "dynamic_seq2seq/encoder/bidirectional_rnn/fw/fw/while/Merge_1"
  op: "Merge"
  input: "dynamic_seq2seq/encoder/bidirectional_rnn/fw/fw/while/Enter_1"
  input: "dynamic_seq2seq/encoder/bidirectional_rnn/fw/fw/while/NextIteration_1"
  attr {
    key: "N"
    value {
      i: 2
    }
  }
  attr {
    key: "T"
    value {
      type: DT_FLOAT
    }
  }
  attr {
    key: "_output_shapes"
    value {
      list {
        shape {
        }
        shape {
        }
      }
    }
  }
}
node {
  name: "dynamic_seq2seq/encoder/bidirectional_rnn/fw/fw/while/Merge_2"
  op: "Merge"
  input: "dynamic_seq2seq/encoder/bidirectional_rnn/fw/fw/while/Enter_2"
  input: "dynamic_seq2seq/encoder/bidirectional_rnn/fw/fw/while/NextIteration_2"
  attr {
    key: "N"
    value {
      i: 2
    }
  }
  attr {
    key: "T"
    value {
      type: DT_FLOAT
    }
  }
  attr {
    key: "_output_shapes"
    value {
      list {
        shape {
          dim {
            size: -1
          }
          dim {
            size: 1024
          }
        }
        shape {
        }
      }
    }
  }
}
node {
  name: "dynamic_seq2seq/encoder/bidirectional_rnn/fw/fw/while/Merge_3"
  op: "Merge"
  input: "dynamic_seq2seq/encoder/bidirectional_rnn/fw/fw/while/Enter_3"
  input: "dynamic_seq2seq/encoder/bidirectional_rnn/fw/fw/while/NextIteration_3"
  attr {
    key: "N"
    value {
      i: 2
    }
  }
  attr {
    key: "T"
    value {
      type: DT_FLOAT
    }
  }
  attr {
    key: "_output_shapes"
    value {
      list {
        shape {
          dim {
            size: -1
          }
          dim {
            size: 1024
          }
        }
        shape {
        }
      }
    }
  }
}
node {
  name: "dynamic_seq2seq/encoder/bidirectional_rnn/fw/fw/while/Less/Enter"
  op: "Enter"
  input: "dynamic_seq2seq/encoder/bidirectional_rnn/fw/fw/strided_slice_1"
  attr {
    key: "T"
    value {
      type: DT_INT32
    }
  }
  attr {
    key: "_output_shapes"
    value {
      list {
        shape {
        }
      }
    }
  }
  attr {
    key: "frame_name"
    value {
      s: "dynamic_seq2seq/encoder/bidirectional_rnn/fw/fw/while/while_context"
    }
  }
  attr {
    key: "is_constant"
    value {
      b: true
    }
  }
  attr {
    key: "parallel_iterations"
    value {
      i: 32
    }
  }
}
node {
  name: "dynamic_seq2seq/encoder/bidirectional_rnn/fw/fw/while/Less"
  op: "Less"
  input: "dynamic_seq2seq/encoder/bidirectional_rnn/fw/fw/while/Merge"
  input: "dynamic_seq2seq/encoder/bidirectional_rnn/fw/fw/while/Less/Enter"
  attr {
    key: "T"
    value {
      type: DT_INT32
    }
  }
  attr {
    key: "_output_shapes"
    value {
      list {
        shape {
        }
      }
    }
  }
}
node {
  name: "dynamic_seq2seq/encoder/bidirectional_rnn/fw/fw/while/LoopCond"
  op: "LoopCond"
  input: "dynamic_seq2seq/encoder/bidirectional_rnn/fw/fw/while/Less"
  attr {
    key: "_output_shapes"
    value {
      list {
        shape {
        }
      }
    }
  }
}
node {
  name: "dynamic_seq2seq/encoder/bidirectional_rnn/fw/fw/while/Switch"
  op: "Switch"
  input: "dynamic_seq2seq/encoder/bidirectional_rnn/fw/fw/while/Merge"
  input: "dynamic_seq2seq/encoder/bidirectional_rnn/fw/fw/while/LoopCond"
  attr {
    key: "T"
    value {
      type: DT_INT32
    }
  }
  attr {
    key: "_class"
    value {
      list {
        s: "loc:@dynamic_seq2seq/encoder/bidirectional_rnn/fw/fw/while/Merge"
      }
    }
  }
  attr {
    key: "_output_shapes"
    value {
      list {
        shape {
        }
        shape {
        }
      }
    }
  }
}
node {
  name: "dynamic_seq2seq/encoder/bidirectional_rnn/fw/fw/while/Switch_1"
  op: "Switch"
  input: "dynamic_seq2seq/encoder/bidirectional_rnn/fw/fw/while/Merge_1"
  input: "dynamic_seq2seq/encoder/bidirectional_rnn/fw/fw/while/LoopCond"
  attr {
    key: "T"
    value {
      type: DT_FLOAT
    }
  }
  attr {
    key: "_class"
    value {
      list {
        s: "loc:@dynamic_seq2seq/encoder/bidirectional_rnn/fw/fw/while/Merge_1"
      }
    }
  }
  attr {
    key: "_output_shapes"
    value {
      list {
        shape {
        }
        shape {
        }
      }
    }
  }
}
node {
  name: "dynamic_seq2seq/encoder/bidirectional_rnn/fw/fw/while/Switch_2"
  op: "Switch"
  input: "dynamic_seq2seq/encoder/bidirectional_rnn/fw/fw/while/Merge_2"
  input: "dynamic_seq2seq/encoder/bidirectional_rnn/fw/fw/while/LoopCond"
  attr {
    key: "T"
    value {
      type: DT_FLOAT
    }
  }
  attr {
    key: "_class"
    value {
      list {
        s: "loc:@dynamic_seq2seq/encoder/bidirectional_rnn/fw/fw/while/Merge_2"
      }
    }
  }
  attr {
    key: "_output_shapes"
    value {
      list {
        shape {
          dim {
            size: -1
          }
          dim {
            size: 1024
          }
        }
        shape {
          dim {
            size: -1
          }
          dim {
            size: 1024
          }
        }
      }
    }
  }
}
node {
  name: "dynamic_seq2seq/encoder/bidirectional_rnn/fw/fw/while/Switch_3"
  op: "Switch"
  input: "dynamic_seq2seq/encoder/bidirectional_rnn/fw/fw/while/Merge_3"
  input: "dynamic_seq2seq/encoder/bidirectional_rnn/fw/fw/while/LoopCond"
  attr {
    key: "T"
    value {
      type: DT_FLOAT
    }
  }
  attr {
    key: "_class"
    value {
      list {
        s: "loc:@dynamic_seq2seq/encoder/bidirectional_rnn/fw/fw/while/Merge_3"
      }
    }
  }
  attr {
    key: "_output_shapes"
    value {
      list {
        shape {
          dim {
            size: -1
          }
          dim {
            size: 1024
          }
        }
        shape {
          dim {
            size: -1
          }
          dim {
            size: 1024
          }
        }
      }
    }
  }
}
node {
  name: "dynamic_seq2seq/encoder/bidirectional_rnn/fw/fw/while/Identity"
  op: "Identity"
  input: "dynamic_seq2seq/encoder/bidirectional_rnn/fw/fw/while/Switch:1"
  attr {
    key: "T"
    value {
      type: DT_INT32
    }
  }
  attr {
    key: "_output_shapes"
    value {
      list {
        shape {
        }
      }
    }
  }
}
node {
  name: "dynamic_seq2seq/encoder/bidirectional_rnn/fw/fw/while/Identity_1"
  op: "Identity"
  input: "dynamic_seq2seq/encoder/bidirectional_rnn/fw/fw/while/Switch_1:1"
  attr {
    key: "T"
    value {
      type: DT_FLOAT
    }
  }
  attr {
    key: "_output_shapes"
    value {
      list {
        shape {
        }
      }
    }
  }
}
node {
  name: "dynamic_seq2seq/encoder/bidirectional_rnn/fw/fw/while/Identity_2"
  op: "Identity"
  input: "dynamic_seq2seq/encoder/bidirectional_rnn/fw/fw/while/Switch_2:1"
  attr {
    key: "T"
    value {
      type: DT_FLOAT
    }
  }
  attr {
    key: "_output_shapes"
    value {
      list {
        shape {
          dim {
            size: -1
          }
          dim {
            size: 1024
          }
        }
      }
    }
  }
}
node {
  name: "dynamic_seq2seq/encoder/bidirectional_rnn/fw/fw/while/Identity_3"
  op: "Identity"
  input: "dynamic_seq2seq/encoder/bidirectional_rnn/fw/fw/while/Switch_3:1"
  attr {
    key: "T"
    value {
      type: DT_FLOAT
    }
  }
  attr {
    key: "_output_shapes"
    value {
      list {
        shape {
          dim {
            size: -1
          }
          dim {
            size: 1024
          }
        }
      }
    }
  }
}
node {
  name: "dynamic_seq2seq/encoder/bidirectional_rnn/fw/fw/while/TensorArrayReadV3/Enter"
  op: "Enter"
  input: "dynamic_seq2seq/encoder/bidirectional_rnn/fw/fw/TensorArray_1"
  attr {
    key: "T"
    value {
      type: DT_RESOURCE
    }
  }
  attr {
    key: "_output_shapes"
    value {
      list {
        shape {
          dim {
            size: 2
          }
        }
      }
    }
  }
  attr {
    key: "frame_name"
    value {
      s: "dynamic_seq2seq/encoder/bidirectional_rnn/fw/fw/while/while_context"
    }
  }
  attr {
    key: "is_constant"
    value {
      b: true
    }
  }
  attr {
    key: "parallel_iterations"
    value {
      i: 32
    }
  }
}
node {
  name: "dynamic_seq2seq/encoder/bidirectional_rnn/fw/fw/while/TensorArrayReadV3/Enter_1"
  op: "Enter"
  input: "dynamic_seq2seq/encoder/bidirectional_rnn/fw/fw/TensorArrayUnstack/TensorArrayScatter/TensorArrayScatterV3"
  attr {
    key: "T"
    value {
      type: DT_FLOAT
    }
  }
  attr {
    key: "_output_shapes"
    value {
      list {
        shape {
        }
      }
    }
  }
  attr {
    key: "frame_name"
    value {
      s: "dynamic_seq2seq/encoder/bidirectional_rnn/fw/fw/while/while_context"
    }
  }
  attr {
    key: "is_constant"
    value {
      b: true
    }
  }
  attr {
    key: "parallel_iterations"
    value {
      i: 32
    }
  }
}
node {
  name: "dynamic_seq2seq/encoder/bidirectional_rnn/fw/fw/while/TensorArrayReadV3"
  op: "TensorArrayReadV3"
  input: "dynamic_seq2seq/encoder/bidirectional_rnn/fw/fw/while/TensorArrayReadV3/Enter"
  input: "dynamic_seq2seq/encoder/bidirectional_rnn/fw/fw/while/Identity"
  input: "dynamic_seq2seq/encoder/bidirectional_rnn/fw/fw/while/TensorArrayReadV3/Enter_1"
  attr {
    key: "_output_shapes"
    value {
      list {
        shape {
          dim {
            size: -1
          }
          dim {
            size: 1024
          }
        }
      }
    }
  }
  attr {
    key: "dtype"
    value {
      type: DT_FLOAT
    }
  }
}
node {
  name: "dynamic_seq2seq/encoder/bidirectional_rnn/fw/fw/while/dropout/keep_prob"
  op: "Const"
  input: "^dynamic_seq2seq/encoder/bidirectional_rnn/fw/fw/while/Identity"
  device: "/device:GPU:0"
  attr {
    key: "_output_shapes"
    value {
      list {
        shape {
        }
      }
    }
  }
  attr {
    key: "dtype"
    value {
      type: DT_FLOAT
    }
  }
  attr {
    key: "value"
    value {
      tensor {
        dtype: DT_FLOAT
        tensor_shape {
        }
        float_val: 0.800000011920929
      }
    }
  }
}
node {
  name: "dynamic_seq2seq/encoder/bidirectional_rnn/fw/fw/while/dropout/Shape"
  op: "Shape"
  input: "dynamic_seq2seq/encoder/bidirectional_rnn/fw/fw/while/TensorArrayReadV3"
  device: "/device:GPU:0"
  attr {
    key: "T"
    value {
      type: DT_FLOAT
    }
  }
  attr {
    key: "_output_shapes"
    value {
      list {
        shape {
          dim {
            size: 2
          }
        }
      }
    }
  }
  attr {
    key: "out_type"
    value {
      type: DT_INT32
    }
  }
}
node {
  name: "dynamic_seq2seq/encoder/bidirectional_rnn/fw/fw/while/dropout/random_uniform/min"
  op: "Const"
  input: "^dynamic_seq2seq/encoder/bidirectional_rnn/fw/fw/while/Identity"
  device: "/device:GPU:0"
  attr {
    key: "_output_shapes"
    value {
      list {
        shape {
        }
      }
    }
  }
  attr {
    key: "dtype"
    value {
      type: DT_FLOAT
    }
  }
  attr {
    key: "value"
    value {
      tensor {
        dtype: DT_FLOAT
        tensor_shape {
        }
        float_val: 0.0
      }
    }
  }
}
node {
  name: "dynamic_seq2seq/encoder/bidirectional_rnn/fw/fw/while/dropout/random_uniform/max"
  op: "Const"
  input: "^dynamic_seq2seq/encoder/bidirectional_rnn/fw/fw/while/Identity"
  device: "/device:GPU:0"
  attr {
    key: "_output_shapes"
    value {
      list {
        shape {
        }
      }
    }
  }
  attr {
    key: "dtype"
    value {
      type: DT_FLOAT
    }
  }
  attr {
    key: "value"
    value {
      tensor {
        dtype: DT_FLOAT
        tensor_shape {
        }
        float_val: 1.0
      }
    }
  }
}
node {
  name: "dynamic_seq2seq/encoder/bidirectional_rnn/fw/fw/while/dropout/random_uniform/RandomUniform"
  op: "RandomUniform"
  input: "dynamic_seq2seq/encoder/bidirectional_rnn/fw/fw/while/dropout/Shape"
  device: "/device:GPU:0"
  attr {
    key: "T"
    value {
      type: DT_INT32
    }
  }
  attr {
    key: "_output_shapes"
    value {
      list {
        shape {
          dim {
            size: -1
          }
          dim {
            size: 1024
          }
        }
      }
    }
  }
  attr {
    key: "dtype"
    value {
      type: DT_FLOAT
    }
  }
  attr {
    key: "seed"
    value {
      i: 0
    }
  }
  attr {
    key: "seed2"
    value {
      i: 0
    }
  }
}
node {
  name: "dynamic_seq2seq/encoder/bidirectional_rnn/fw/fw/while/dropout/random_uniform/sub"
  op: "Sub"
  input: "dynamic_seq2seq/encoder/bidirectional_rnn/fw/fw/while/dropout/random_uniform/max"
  input: "dynamic_seq2seq/encoder/bidirectional_rnn/fw/fw/while/dropout/random_uniform/min"
  device: "/device:GPU:0"
  attr {
    key: "T"
    value {
      type: DT_FLOAT
    }
  }
  attr {
    key: "_output_shapes"
    value {
      list {
        shape {
        }
      }
    }
  }
}
node {
  name: "dynamic_seq2seq/encoder/bidirectional_rnn/fw/fw/while/dropout/random_uniform/mul"
  op: "Mul"
  input: "dynamic_seq2seq/encoder/bidirectional_rnn/fw/fw/while/dropout/random_uniform/RandomUniform"
  input: "dynamic_seq2seq/encoder/bidirectional_rnn/fw/fw/while/dropout/random_uniform/sub"
  device: "/device:GPU:0"
  attr {
    key: "T"
    value {
      type: DT_FLOAT
    }
  }
  attr {
    key: "_output_shapes"
    value {
      list {
        shape {
          dim {
            size: -1
          }
          dim {
            size: 1024
          }
        }
      }
    }
  }
}
node {
  name: "dynamic_seq2seq/encoder/bidirectional_rnn/fw/fw/while/dropout/random_uniform"
  op: "Add"
  input: "dynamic_seq2seq/encoder/bidirectional_rnn/fw/fw/while/dropout/random_uniform/mul"
  input: "dynamic_seq2seq/encoder/bidirectional_rnn/fw/fw/while/dropout/random_uniform/min"
  device: "/device:GPU:0"
  attr {
    key: "T"
    value {
      type: DT_FLOAT
    }
  }
  attr {
    key: "_output_shapes"
    value {
      list {
        shape {
          dim {
            size: -1
          }
          dim {
            size: 1024
          }
        }
      }
    }
  }
}
node {
  name: "dynamic_seq2seq/encoder/bidirectional_rnn/fw/fw/while/dropout/add"
  op: "Add"
  input: "dynamic_seq2seq/encoder/bidirectional_rnn/fw/fw/while/dropout/keep_prob"
  input: "dynamic_seq2seq/encoder/bidirectional_rnn/fw/fw/while/dropout/random_uniform"
  device: "/device:GPU:0"
  attr {
    key: "T"
    value {
      type: DT_FLOAT
    }
  }
  attr {
    key: "_output_shapes"
    value {
      list {
        shape {
          dim {
            size: -1
          }
          dim {
            size: 1024
          }
        }
      }
    }
  }
}
node {
  name: "dynamic_seq2seq/encoder/bidirectional_rnn/fw/fw/while/dropout/Floor"
  op: "Floor"
  input: "dynamic_seq2seq/encoder/bidirectional_rnn/fw/fw/while/dropout/add"
  device: "/device:GPU:0"
  attr {
    key: "T"
    value {
      type: DT_FLOAT
    }
  }
  attr {
    key: "_output_shapes"
    value {
      list {
        shape {
          dim {
            size: -1
          }
          dim {
            size: 1024
          }
        }
      }
    }
  }
}
node {
  name: "dynamic_seq2seq/encoder/bidirectional_rnn/fw/fw/while/dropout/div"
  op: "RealDiv"
  input: "dynamic_seq2seq/encoder/bidirectional_rnn/fw/fw/while/TensorArrayReadV3"
  input: "dynamic_seq2seq/encoder/bidirectional_rnn/fw/fw/while/dropout/keep_prob"
  device: "/device:GPU:0"
  attr {
    key: "T"
    value {
      type: DT_FLOAT
    }
  }
  attr {
    key: "_output_shapes"
    value {
      list {
        shape {
          dim {
            size: -1
          }
          dim {
            size: 1024
          }
        }
      }
    }
  }
}
node {
  name: "dynamic_seq2seq/encoder/bidirectional_rnn/fw/fw/while/dropout/mul"
  op: "Mul"
  input: "dynamic_seq2seq/encoder/bidirectional_rnn/fw/fw/while/dropout/div"
  input: "dynamic_seq2seq/encoder/bidirectional_rnn/fw/fw/while/dropout/Floor"
  device: "/device:GPU:0"
  attr {
    key: "T"
    value {
      type: DT_FLOAT
    }
  }
  attr {
    key: "_output_shapes"
    value {
      list {
        shape {
          dim {
            size: -1
          }
          dim {
            size: 1024
          }
        }
      }
    }
  }
}
node {
  name: "dynamic_seq2seq/encoder/bidirectional_rnn/fw/basic_lstm_cell/kernel/Initializer/random_uniform/shape"
  op: "Const"
  attr {
    key: "_class"
    value {
      list {
        s: "loc:@dynamic_seq2seq/encoder/bidirectional_rnn/fw/basic_lstm_cell/kernel"
      }
    }
  }
  attr {
    key: "_output_shapes"
    value {
      list {
        shape {
          dim {
            size: 2
          }
        }
      }
    }
  }
  attr {
    key: "dtype"
    value {
      type: DT_INT32
    }
  }
  attr {
    key: "value"
    value {
      tensor {
        dtype: DT_INT32
        tensor_shape {
          dim {
            size: 2
          }
        }
        tensor_content: "\000\010\000\000\000\020\000\000"
      }
    }
  }
}
node {
  name: "dynamic_seq2seq/encoder/bidirectional_rnn/fw/basic_lstm_cell/kernel/Initializer/random_uniform/min"
  op: "Const"
  attr {
    key: "_class"
    value {
      list {
        s: "loc:@dynamic_seq2seq/encoder/bidirectional_rnn/fw/basic_lstm_cell/kernel"
      }
    }
  }
  attr {
    key: "_output_shapes"
    value {
      list {
        shape {
        }
      }
    }
  }
  attr {
    key: "dtype"
    value {
      type: DT_FLOAT
    }
  }
  attr {
    key: "value"
    value {
      tensor {
        dtype: DT_FLOAT
        tensor_shape {
        }
        float_val: -0.10000000149011612
      }
    }
  }
}
node {
  name: "dynamic_seq2seq/encoder/bidirectional_rnn/fw/basic_lstm_cell/kernel/Initializer/random_uniform/max"
  op: "Const"
  attr {
    key: "_class"
    value {
      list {
        s: "loc:@dynamic_seq2seq/encoder/bidirectional_rnn/fw/basic_lstm_cell/kernel"
      }
    }
  }
  attr {
    key: "_output_shapes"
    value {
      list {
        shape {
        }
      }
    }
  }
  attr {
    key: "dtype"
    value {
      type: DT_FLOAT
    }
  }
  attr {
    key: "value"
    value {
      tensor {
        dtype: DT_FLOAT
        tensor_shape {
        }
        float_val: 0.10000000149011612
      }
    }
  }
}
node {
  name: "dynamic_seq2seq/encoder/bidirectional_rnn/fw/basic_lstm_cell/kernel/Initializer/random_uniform/RandomUniform"
  op: "RandomUniform"
  input: "dynamic_seq2seq/encoder/bidirectional_rnn/fw/basic_lstm_cell/kernel/Initializer/random_uniform/shape"
  attr {
    key: "T"
    value {
      type: DT_INT32
    }
  }
  attr {
    key: "_class"
    value {
      list {
        s: "loc:@dynamic_seq2seq/encoder/bidirectional_rnn/fw/basic_lstm_cell/kernel"
      }
    }
  }
  attr {
    key: "_output_shapes"
    value {
      list {
        shape {
          dim {
            size: 2048
          }
          dim {
            size: 4096
          }
        }
      }
    }
  }
  attr {
    key: "dtype"
    value {
      type: DT_FLOAT
    }
  }
  attr {
    key: "seed"
    value {
      i: 0
    }
  }
  attr {
    key: "seed2"
    value {
      i: 0
    }
  }
}
node {
  name: "dynamic_seq2seq/encoder/bidirectional_rnn/fw/basic_lstm_cell/kernel/Initializer/random_uniform/sub"
  op: "Sub"
  input: "dynamic_seq2seq/encoder/bidirectional_rnn/fw/basic_lstm_cell/kernel/Initializer/random_uniform/max"
  input: "dynamic_seq2seq/encoder/bidirectional_rnn/fw/basic_lstm_cell/kernel/Initializer/random_uniform/min"
  attr {
    key: "T"
    value {
      type: DT_FLOAT
    }
  }
  attr {
    key: "_class"
    value {
      list {
        s: "loc:@dynamic_seq2seq/encoder/bidirectional_rnn/fw/basic_lstm_cell/kernel"
      }
    }
  }
  attr {
    key: "_output_shapes"
    value {
      list {
        shape {
        }
      }
    }
  }
}
node {
  name: "dynamic_seq2seq/encoder/bidirectional_rnn/fw/basic_lstm_cell/kernel/Initializer/random_uniform/mul"
  op: "Mul"
  input: "dynamic_seq2seq/encoder/bidirectional_rnn/fw/basic_lstm_cell/kernel/Initializer/random_uniform/RandomUniform"
  input: "dynamic_seq2seq/encoder/bidirectional_rnn/fw/basic_lstm_cell/kernel/Initializer/random_uniform/sub"
  attr {
    key: "T"
    value {
      type: DT_FLOAT
    }
  }
  attr {
    key: "_class"
    value {
      list {
        s: "loc:@dynamic_seq2seq/encoder/bidirectional_rnn/fw/basic_lstm_cell/kernel"
      }
    }
  }
  attr {
    key: "_output_shapes"
    value {
      list {
        shape {
          dim {
            size: 2048
          }
          dim {
            size: 4096
          }
        }
      }
    }
  }
}
node {
  name: "dynamic_seq2seq/encoder/bidirectional_rnn/fw/basic_lstm_cell/kernel/Initializer/random_uniform"
  op: "Add"
  input: "dynamic_seq2seq/encoder/bidirectional_rnn/fw/basic_lstm_cell/kernel/Initializer/random_uniform/mul"
  input: "dynamic_seq2seq/encoder/bidirectional_rnn/fw/basic_lstm_cell/kernel/Initializer/random_uniform/min"
  attr {
    key: "T"
    value {
      type: DT_FLOAT
    }
  }
  attr {
    key: "_class"
    value {
      list {
        s: "loc:@dynamic_seq2seq/encoder/bidirectional_rnn/fw/basic_lstm_cell/kernel"
      }
    }
  }
  attr {
    key: "_output_shapes"
    value {
      list {
        shape {
          dim {
            size: 2048
          }
          dim {
            size: 4096
          }
        }
      }
    }
  }
}
node {
  name: "dynamic_seq2seq/encoder/bidirectional_rnn/fw/basic_lstm_cell/kernel"
  op: "VariableV2"
  device: "/device:GPU:0"
  attr {
    key: "_class"
    value {
      list {
        s: "loc:@dynamic_seq2seq/encoder/bidirectional_rnn/fw/basic_lstm_cell/kernel"
      }
    }
  }
  attr {
    key: "_output_shapes"
    value {
      list {
        shape {
          dim {
            size: 2048
          }
          dim {
            size: 4096
          }
        }
      }
    }
  }
  attr {
    key: "container"
    value {
      s: "train"
    }
  }
  attr {
    key: "dtype"
    value {
      type: DT_FLOAT
    }
  }
  attr {
    key: "shape"
    value {
      shape {
        dim {
          size: 2048
        }
        dim {
          size: 4096
        }
      }
    }
  }
  attr {
    key: "shared_name"
    value {
      s: ""
    }
  }
}
node {
  name: "dynamic_seq2seq/encoder/bidirectional_rnn/fw/basic_lstm_cell/kernel/Assign"
  op: "Assign"
  input: "dynamic_seq2seq/encoder/bidirectional_rnn/fw/basic_lstm_cell/kernel"
  input: "dynamic_seq2seq/encoder/bidirectional_rnn/fw/basic_lstm_cell/kernel/Initializer/random_uniform"
  device: "/device:GPU:0"
  attr {
    key: "T"
    value {
      type: DT_FLOAT
    }
  }
  attr {
    key: "_class"
    value {
      list {
        s: "loc:@dynamic_seq2seq/encoder/bidirectional_rnn/fw/basic_lstm_cell/kernel"
      }
    }
  }
  attr {
    key: "_output_shapes"
    value {
      list {
        shape {
          dim {
            size: 2048
          }
          dim {
            size: 4096
          }
        }
      }
    }
  }
  attr {
    key: "use_locking"
    value {
      b: true
    }
  }
  attr {
    key: "validate_shape"
    value {
      b: true
    }
  }
}
node {
  name: "dynamic_seq2seq/encoder/bidirectional_rnn/fw/basic_lstm_cell/kernel/read"
  op: "Identity"
  input: "dynamic_seq2seq/encoder/bidirectional_rnn/fw/basic_lstm_cell/kernel"
  device: "/device:GPU:0"
  attr {
    key: "T"
    value {
      type: DT_FLOAT
    }
  }
  attr {
    key: "_output_shapes"
    value {
      list {
        shape {
          dim {
            size: 2048
          }
          dim {
            size: 4096
          }
        }
      }
    }
  }
}
node {
  name: "dynamic_seq2seq/encoder/bidirectional_rnn/fw/basic_lstm_cell/bias/Initializer/Const"
  op: "Const"
  attr {
    key: "_class"
    value {
      list {
        s: "loc:@dynamic_seq2seq/encoder/bidirectional_rnn/fw/basic_lstm_cell/bias"
      }
    }
  }
  attr {
    key: "_output_shapes"
    value {
      list {
        shape {
          dim {
            size: 4096
          }
        }
      }
    }
  }
  attr {
    key: "dtype"
    value {
      type: DT_FLOAT
    }
  }
  attr {
    key: "value"
    value {
      tensor {
        dtype: DT_FLOAT
        tensor_shape {
          dim {
            size: 4096
          }
        }
        float_val: 0.0
      }
    }
  }
}
node {
  name: "dynamic_seq2seq/encoder/bidirectional_rnn/fw/basic_lstm_cell/bias"
  op: "VariableV2"
  device: "/device:GPU:0"
  attr {
    key: "_class"
    value {
      list {
        s: "loc:@dynamic_seq2seq/encoder/bidirectional_rnn/fw/basic_lstm_cell/bias"
      }
    }
  }
  attr {
    key: "_output_shapes"
    value {
      list {
        shape {
          dim {
            size: 4096
          }
        }
      }
    }
  }
  attr {
    key: "container"
    value {
      s: "train"
    }
  }
  attr {
    key: "dtype"
    value {
      type: DT_FLOAT
    }
  }
  attr {
    key: "shape"
    value {
      shape {
        dim {
          size: 4096
        }
      }
    }
  }
  attr {
    key: "shared_name"
    value {
      s: ""
    }
  }
}
node {
  name: "dynamic_seq2seq/encoder/bidirectional_rnn/fw/basic_lstm_cell/bias/Assign"
  op: "Assign"
  input: "dynamic_seq2seq/encoder/bidirectional_rnn/fw/basic_lstm_cell/bias"
  input: "dynamic_seq2seq/encoder/bidirectional_rnn/fw/basic_lstm_cell/bias/Initializer/Const"
  device: "/device:GPU:0"
  attr {
    key: "T"
    value {
      type: DT_FLOAT
    }
  }
  attr {
    key: "_class"
    value {
      list {
        s: "loc:@dynamic_seq2seq/encoder/bidirectional_rnn/fw/basic_lstm_cell/bias"
      }
    }
  }
  attr {
    key: "_output_shapes"
    value {
      list {
        shape {
          dim {
            size: 4096
          }
        }
      }
    }
  }
  attr {
    key: "use_locking"
    value {
      b: true
    }
  }
  attr {
    key: "validate_shape"
    value {
      b: true
    }
  }
}
node {
  name: "dynamic_seq2seq/encoder/bidirectional_rnn/fw/basic_lstm_cell/bias/read"
  op: "Identity"
  input: "dynamic_seq2seq/encoder/bidirectional_rnn/fw/basic_lstm_cell/bias"
  device: "/device:GPU:0"
  attr {
    key: "T"
    value {
      type: DT_FLOAT
    }
  }
  attr {
    key: "_output_shapes"
    value {
      list {
        shape {
          dim {
            size: 4096
          }
        }
      }
    }
  }
}
node {
  name: "dynamic_seq2seq/encoder/bidirectional_rnn/fw/fw/while/fw/basic_lstm_cell/concat/axis"
  op: "Const"
  input: "^dynamic_seq2seq/encoder/bidirectional_rnn/fw/fw/while/Identity"
  device: "/device:GPU:0"
  attr {
    key: "_output_shapes"
    value {
      list {
        shape {
        }
      }
    }
  }
  attr {
    key: "dtype"
    value {
      type: DT_INT32
    }
  }
  attr {
    key: "value"
    value {
      tensor {
        dtype: DT_INT32
        tensor_shape {
        }
        int_val: 1
      }
    }
  }
}
node {
  name: "dynamic_seq2seq/encoder/bidirectional_rnn/fw/fw/while/fw/basic_lstm_cell/concat"
  op: "ConcatV2"
  input: "dynamic_seq2seq/encoder/bidirectional_rnn/fw/fw/while/dropout/mul"
  input: "dynamic_seq2seq/encoder/bidirectional_rnn/fw/fw/while/Identity_3"
  input: "dynamic_seq2seq/encoder/bidirectional_rnn/fw/fw/while/fw/basic_lstm_cell/concat/axis"
  device: "/device:GPU:0"
  attr {
    key: "N"
    value {
      i: 2
    }
  }
  attr {
    key: "T"
    value {
      type: DT_FLOAT
    }
  }
  attr {
    key: "Tidx"
    value {
      type: DT_INT32
    }
  }
  attr {
    key: "_output_shapes"
    value {
      list {
        shape {
          dim {
            size: -1
          }
          dim {
            size: 2048
          }
        }
      }
    }
  }
}
node {
  name: "dynamic_seq2seq/encoder/bidirectional_rnn/fw/fw/while/fw/basic_lstm_cell/MatMul/Enter"
  op: "Enter"
  input: "dynamic_seq2seq/encoder/bidirectional_rnn/fw/basic_lstm_cell/kernel/read"
  device: "/device:GPU:0"
  attr {
    key: "T"
    value {
      type: DT_FLOAT
    }
  }
  attr {
    key: "_output_shapes"
    value {
      list {
        shape {
          dim {
            size: 2048
          }
          dim {
            size: 4096
          }
        }
      }
    }
  }
  attr {
    key: "frame_name"
    value {
      s: "dynamic_seq2seq/encoder/bidirectional_rnn/fw/fw/while/while_context"
    }
  }
  attr {
    key: "is_constant"
    value {
      b: true
    }
  }
  attr {
    key: "parallel_iterations"
    value {
      i: 32
    }
  }
}
node {
  name: "dynamic_seq2seq/encoder/bidirectional_rnn/fw/fw/while/fw/basic_lstm_cell/MatMul"
  op: "MatMul"
  input: "dynamic_seq2seq/encoder/bidirectional_rnn/fw/fw/while/fw/basic_lstm_cell/concat"
  input: "dynamic_seq2seq/encoder/bidirectional_rnn/fw/fw/while/fw/basic_lstm_cell/MatMul/Enter"
  device: "/device:GPU:0"
  attr {
    key: "T"
    value {
      type: DT_FLOAT
    }
  }
  attr {
    key: "_output_shapes"
    value {
      list {
        shape {
          dim {
            size: -1
          }
          dim {
            size: 4096
          }
        }
      }
    }
  }
  attr {
    key: "transpose_a"
    value {
      b: false
    }
  }
  attr {
    key: "transpose_b"
    value {
      b: false
    }
  }
}
node {
  name: "dynamic_seq2seq/encoder/bidirectional_rnn/fw/fw/while/fw/basic_lstm_cell/BiasAdd/Enter"
  op: "Enter"
  input: "dynamic_seq2seq/encoder/bidirectional_rnn/fw/basic_lstm_cell/bias/read"
  device: "/device:GPU:0"
  attr {
    key: "T"
    value {
      type: DT_FLOAT
    }
  }
  attr {
    key: "_output_shapes"
    value {
      list {
        shape {
          dim {
            size: 4096
          }
        }
      }
    }
  }
  attr {
    key: "frame_name"
    value {
      s: "dynamic_seq2seq/encoder/bidirectional_rnn/fw/fw/while/while_context"
    }
  }
  attr {
    key: "is_constant"
    value {
      b: true
    }
  }
  attr {
    key: "parallel_iterations"
    value {
      i: 32
    }
  }
}
node {
  name: "dynamic_seq2seq/encoder/bidirectional_rnn/fw/fw/while/fw/basic_lstm_cell/BiasAdd"
  op: "BiasAdd"
  input: "dynamic_seq2seq/encoder/bidirectional_rnn/fw/fw/while/fw/basic_lstm_cell/MatMul"
  input: "dynamic_seq2seq/encoder/bidirectional_rnn/fw/fw/while/fw/basic_lstm_cell/BiasAdd/Enter"
  device: "/device:GPU:0"
  attr {
    key: "T"
    value {
      type: DT_FLOAT
    }
  }
  attr {
    key: "_output_shapes"
    value {
      list {
        shape {
          dim {
            size: -1
          }
          dim {
            size: 4096
          }
        }
      }
    }
  }
  attr {
    key: "data_format"
    value {
      s: "NHWC"
    }
  }
}
node {
  name: "dynamic_seq2seq/encoder/bidirectional_rnn/fw/fw/while/fw/basic_lstm_cell/Const"
  op: "Const"
  input: "^dynamic_seq2seq/encoder/bidirectional_rnn/fw/fw/while/Identity"
  device: "/device:GPU:0"
  attr {
    key: "_output_shapes"
    value {
      list {
        shape {
        }
      }
    }
  }
  attr {
    key: "dtype"
    value {
      type: DT_INT32
    }
  }
  attr {
    key: "value"
    value {
      tensor {
        dtype: DT_INT32
        tensor_shape {
        }
        int_val: 4
      }
    }
  }
}
node {
  name: "dynamic_seq2seq/encoder/bidirectional_rnn/fw/fw/while/fw/basic_lstm_cell/split/split_dim"
  op: "Const"
  input: "^dynamic_seq2seq/encoder/bidirectional_rnn/fw/fw/while/Identity"
  device: "/device:GPU:0"
  attr {
    key: "_output_shapes"
    value {
      list {
        shape {
        }
      }
    }
  }
  attr {
    key: "dtype"
    value {
      type: DT_INT32
    }
  }
  attr {
    key: "value"
    value {
      tensor {
        dtype: DT_INT32
        tensor_shape {
        }
        int_val: 1
      }
    }
  }
}
node {
  name: "dynamic_seq2seq/encoder/bidirectional_rnn/fw/fw/while/fw/basic_lstm_cell/split"
  op: "Split"
  input: "dynamic_seq2seq/encoder/bidirectional_rnn/fw/fw/while/fw/basic_lstm_cell/split/split_dim"
  input: "dynamic_seq2seq/encoder/bidirectional_rnn/fw/fw/while/fw/basic_lstm_cell/BiasAdd"
  device: "/device:GPU:0"
  attr {
    key: "T"
    value {
      type: DT_FLOAT
    }
  }
  attr {
    key: "_output_shapes"
    value {
      list {
        shape {
          dim {
            size: -1
          }
          dim {
            size: 1024
          }
        }
        shape {
          dim {
            size: -1
          }
          dim {
            size: 1024
          }
        }
        shape {
          dim {
            size: -1
          }
          dim {
            size: 1024
          }
        }
        shape {
          dim {
            size: -1
          }
          dim {
            size: 1024
          }
        }
      }
    }
  }
  attr {
    key: "num_split"
    value {
      i: 4
    }
  }
}
node {
  name: "dynamic_seq2seq/encoder/bidirectional_rnn/fw/fw/while/fw/basic_lstm_cell/add/y"
  op: "Const"
  input: "^dynamic_seq2seq/encoder/bidirectional_rnn/fw/fw/while/Identity"
  device: "/device:GPU:0"
  attr {
    key: "_output_shapes"
    value {
      list {
        shape {
        }
      }
    }
  }
  attr {
    key: "dtype"
    value {
      type: DT_FLOAT
    }
  }
  attr {
    key: "value"
    value {
      tensor {
        dtype: DT_FLOAT
        tensor_shape {
        }
        float_val: 1.0
      }
    }
  }
}
node {
  name: "dynamic_seq2seq/encoder/bidirectional_rnn/fw/fw/while/fw/basic_lstm_cell/add"
  op: "Add"
  input: "dynamic_seq2seq/encoder/bidirectional_rnn/fw/fw/while/fw/basic_lstm_cell/split:2"
  input: "dynamic_seq2seq/encoder/bidirectional_rnn/fw/fw/while/fw/basic_lstm_cell/add/y"
  device: "/device:GPU:0"
  attr {
    key: "T"
    value {
      type: DT_FLOAT
    }
  }
  attr {
    key: "_output_shapes"
    value {
      list {
        shape {
          dim {
            size: -1
          }
          dim {
            size: 1024
          }
        }
      }
    }
  }
}
node {
  name: "dynamic_seq2seq/encoder/bidirectional_rnn/fw/fw/while/fw/basic_lstm_cell/Sigmoid"
  op: "Sigmoid"
  input: "dynamic_seq2seq/encoder/bidirectional_rnn/fw/fw/while/fw/basic_lstm_cell/add"
  device: "/device:GPU:0"
  attr {
    key: "T"
    value {
      type: DT_FLOAT
    }
  }
  attr {
    key: "_output_shapes"
    value {
      list {
        shape {
          dim {
            size: -1
          }
          dim {
            size: 1024
          }
        }
      }
    }
  }
}
node {
  name: "dynamic_seq2seq/encoder/bidirectional_rnn/fw/fw/while/fw/basic_lstm_cell/mul"
  op: "Mul"
  input: "dynamic_seq2seq/encoder/bidirectional_rnn/fw/fw/while/Identity_2"
  input: "dynamic_seq2seq/encoder/bidirectional_rnn/fw/fw/while/fw/basic_lstm_cell/Sigmoid"
  device: "/device:GPU:0"
  attr {
    key: "T"
    value {
      type: DT_FLOAT
    }
  }
  attr {
    key: "_output_shapes"
    value {
      list {
        shape {
          dim {
            size: -1
          }
          dim {
            size: 1024
          }
        }
      }
    }
  }
}
node {
  name: "dynamic_seq2seq/encoder/bidirectional_rnn/fw/fw/while/fw/basic_lstm_cell/Sigmoid_1"
  op: "Sigmoid"
  input: "dynamic_seq2seq/encoder/bidirectional_rnn/fw/fw/while/fw/basic_lstm_cell/split"
  device: "/device:GPU:0"
  attr {
    key: "T"
    value {
      type: DT_FLOAT
    }
  }
  attr {
    key: "_output_shapes"
    value {
      list {
        shape {
          dim {
            size: -1
          }
          dim {
            size: 1024
          }
        }
      }
    }
  }
}
node {
  name: "dynamic_seq2seq/encoder/bidirectional_rnn/fw/fw/while/fw/basic_lstm_cell/Tanh"
  op: "Tanh"
  input: "dynamic_seq2seq/encoder/bidirectional_rnn/fw/fw/while/fw/basic_lstm_cell/split:1"
  device: "/device:GPU:0"
  attr {
    key: "T"
    value {
      type: DT_FLOAT
    }
  }
  attr {
    key: "_output_shapes"
    value {
      list {
        shape {
          dim {
            size: -1
          }
          dim {
            size: 1024
          }
        }
      }
    }
  }
}
node {
  name: "dynamic_seq2seq/encoder/bidirectional_rnn/fw/fw/while/fw/basic_lstm_cell/mul_1"
  op: "Mul"
  input: "dynamic_seq2seq/encoder/bidirectional_rnn/fw/fw/while/fw/basic_lstm_cell/Sigmoid_1"
  input: "dynamic_seq2seq/encoder/bidirectional_rnn/fw/fw/while/fw/basic_lstm_cell/Tanh"
  device: "/device:GPU:0"
  attr {
    key: "T"
    value {
      type: DT_FLOAT
    }
  }
  attr {
    key: "_output_shapes"
    value {
      list {
        shape {
          dim {
            size: -1
          }
          dim {
            size: 1024
          }
        }
      }
    }
  }
}
node {
  name: "dynamic_seq2seq/encoder/bidirectional_rnn/fw/fw/while/fw/basic_lstm_cell/add_1"
  op: "Add"
  input: "dynamic_seq2seq/encoder/bidirectional_rnn/fw/fw/while/fw/basic_lstm_cell/mul"
  input: "dynamic_seq2seq/encoder/bidirectional_rnn/fw/fw/while/fw/basic_lstm_cell/mul_1"
  device: "/device:GPU:0"
  attr {
    key: "T"
    value {
      type: DT_FLOAT
    }
  }
  attr {
    key: "_output_shapes"
    value {
      list {
        shape {
          dim {
            size: -1
          }
          dim {
            size: 1024
          }
        }
      }
    }
  }
}
node {
  name: "dynamic_seq2seq/encoder/bidirectional_rnn/fw/fw/while/fw/basic_lstm_cell/Tanh_1"
  op: "Tanh"
  input: "dynamic_seq2seq/encoder/bidirectional_rnn/fw/fw/while/fw/basic_lstm_cell/add_1"
  device: "/device:GPU:0"
  attr {
    key: "T"
    value {
      type: DT_FLOAT
    }
  }
  attr {
    key: "_output_shapes"
    value {
      list {
        shape {
          dim {
            size: -1
          }
          dim {
            size: 1024
          }
        }
      }
    }
  }
}
node {
  name: "dynamic_seq2seq/encoder/bidirectional_rnn/fw/fw/while/fw/basic_lstm_cell/Sigmoid_2"
  op: "Sigmoid"
  input: "dynamic_seq2seq/encoder/bidirectional_rnn/fw/fw/while/fw/basic_lstm_cell/split:3"
  device: "/device:GPU:0"
  attr {
    key: "T"
    value {
      type: DT_FLOAT
    }
  }
  attr {
    key: "_output_shapes"
    value {
      list {
        shape {
          dim {
            size: -1
          }
          dim {
            size: 1024
          }
        }
      }
    }
  }
}
node {
  name: "dynamic_seq2seq/encoder/bidirectional_rnn/fw/fw/while/fw/basic_lstm_cell/mul_2"
  op: "Mul"
  input: "dynamic_seq2seq/encoder/bidirectional_rnn/fw/fw/while/fw/basic_lstm_cell/Tanh_1"
  input: "dynamic_seq2seq/encoder/bidirectional_rnn/fw/fw/while/fw/basic_lstm_cell/Sigmoid_2"
  device: "/device:GPU:0"
  attr {
    key: "T"
    value {
      type: DT_FLOAT
    }
  }
  attr {
    key: "_output_shapes"
    value {
      list {
        shape {
          dim {
            size: -1
          }
          dim {
            size: 1024
          }
        }
      }
    }
  }
}
node {
  name: "dynamic_seq2seq/encoder/bidirectional_rnn/fw/fw/while/GreaterEqual/Enter"
  op: "Enter"
  input: "dynamic_seq2seq/encoder/bidirectional_rnn/fw/fw/CheckSeqLen"
  attr {
    key: "T"
    value {
      type: DT_INT32
    }
  }
  attr {
    key: "_output_shapes"
    value {
      list {
        shape {
          dim {
            size: -1
          }
        }
      }
    }
  }
  attr {
    key: "frame_name"
    value {
      s: "dynamic_seq2seq/encoder/bidirectional_rnn/fw/fw/while/while_context"
    }
  }
  attr {
    key: "is_constant"
    value {
      b: true
    }
  }
  attr {
    key: "parallel_iterations"
    value {
      i: 32
    }
  }
}
node {
  name: "dynamic_seq2seq/encoder/bidirectional_rnn/fw/fw/while/GreaterEqual"
  op: "GreaterEqual"
  input: "dynamic_seq2seq/encoder/bidirectional_rnn/fw/fw/while/Identity"
  input: "dynamic_seq2seq/encoder/bidirectional_rnn/fw/fw/while/GreaterEqual/Enter"
  attr {
    key: "T"
    value {
      type: DT_INT32
    }
  }
  attr {
    key: "_output_shapes"
    value {
      list {
        shape {
          dim {
            size: -1
          }
        }
      }
    }
  }
}
node {
  name: "dynamic_seq2seq/encoder/bidirectional_rnn/fw/fw/while/Select/Enter"
  op: "Enter"
  input: "dynamic_seq2seq/encoder/bidirectional_rnn/fw/fw/zeros"
  device: "/device:GPU:0"
  attr {
    key: "T"
    value {
      type: DT_FLOAT
    }
  }
  attr {
    key: "_class"
    value {
      list {
        s: "loc:@dynamic_seq2seq/encoder/bidirectional_rnn/fw/fw/while/fw/basic_lstm_cell/mul_2"
      }
    }
  }
  attr {
    key: "_output_shapes"
    value {
      list {
        shape {
          dim {
            size: -1
          }
          dim {
            size: 1024
          }
        }
      }
    }
  }
  attr {
    key: "frame_name"
    value {
      s: "dynamic_seq2seq/encoder/bidirectional_rnn/fw/fw/while/while_context"
    }
  }
  attr {
    key: "is_constant"
    value {
      b: true
    }
  }
  attr {
    key: "parallel_iterations"
    value {
      i: 32
    }
  }
}
node {
  name: "dynamic_seq2seq/encoder/bidirectional_rnn/fw/fw/while/Select"
  op: "Select"
  input: "dynamic_seq2seq/encoder/bidirectional_rnn/fw/fw/while/GreaterEqual"
  input: "dynamic_seq2seq/encoder/bidirectional_rnn/fw/fw/while/Select/Enter"
  input: "dynamic_seq2seq/encoder/bidirectional_rnn/fw/fw/while/fw/basic_lstm_cell/mul_2"
  device: "/device:GPU:0"
  attr {
    key: "T"
    value {
      type: DT_FLOAT
    }
  }
  attr {
    key: "_class"
    value {
      list {
        s: "loc:@dynamic_seq2seq/encoder/bidirectional_rnn/fw/fw/while/fw/basic_lstm_cell/mul_2"
      }
    }
  }
  attr {
    key: "_output_shapes"
    value {
      list {
        shape {
          dim {
            size: -1
          }
          dim {
            size: 1024
          }
        }
      }
    }
  }
}
node {
  name: "dynamic_seq2seq/encoder/bidirectional_rnn/fw/fw/while/GreaterEqual_1"
  op: "GreaterEqual"
  input: "dynamic_seq2seq/encoder/bidirectional_rnn/fw/fw/while/Identity"
  input: "dynamic_seq2seq/encoder/bidirectional_rnn/fw/fw/while/GreaterEqual/Enter"
  attr {
    key: "T"
    value {
      type: DT_INT32
    }
  }
  attr {
    key: "_output_shapes"
    value {
      list {
        shape {
          dim {
            size: -1
          }
        }
      }
    }
  }
}
node {
  name: "dynamic_seq2seq/encoder/bidirectional_rnn/fw/fw/while/Select_1"
  op: "Select"
  input: "dynamic_seq2seq/encoder/bidirectional_rnn/fw/fw/while/GreaterEqual_1"
  input: "dynamic_seq2seq/encoder/bidirectional_rnn/fw/fw/while/Identity_2"
  input: "dynamic_seq2seq/encoder/bidirectional_rnn/fw/fw/while/fw/basic_lstm_cell/add_1"
  device: "/device:GPU:0"
  attr {
    key: "T"
    value {
      type: DT_FLOAT
    }
  }
  attr {
    key: "_class"
    value {
      list {
        s: "loc:@dynamic_seq2seq/encoder/bidirectional_rnn/fw/fw/while/fw/basic_lstm_cell/add_1"
      }
    }
  }
  attr {
    key: "_output_shapes"
    value {
      list {
        shape {
          dim {
            size: -1
          }
          dim {
            size: 1024
          }
        }
      }
    }
  }
}
node {
  name: "dynamic_seq2seq/encoder/bidirectional_rnn/fw/fw/while/GreaterEqual_2"
  op: "GreaterEqual"
  input: "dynamic_seq2seq/encoder/bidirectional_rnn/fw/fw/while/Identity"
  input: "dynamic_seq2seq/encoder/bidirectional_rnn/fw/fw/while/GreaterEqual/Enter"
  attr {
    key: "T"
    value {
      type: DT_INT32
    }
  }
  attr {
    key: "_output_shapes"
    value {
      list {
        shape {
          dim {
            size: -1
          }
        }
      }
    }
  }
}
node {
  name: "dynamic_seq2seq/encoder/bidirectional_rnn/fw/fw/while/Select_2"
  op: "Select"
  input: "dynamic_seq2seq/encoder/bidirectional_rnn/fw/fw/while/GreaterEqual_2"
  input: "dynamic_seq2seq/encoder/bidirectional_rnn/fw/fw/while/Identity_3"
  input: "dynamic_seq2seq/encoder/bidirectional_rnn/fw/fw/while/fw/basic_lstm_cell/mul_2"
  device: "/device:GPU:0"
  attr {
    key: "T"
    value {
      type: DT_FLOAT
    }
  }
  attr {
    key: "_class"
    value {
      list {
        s: "loc:@dynamic_seq2seq/encoder/bidirectional_rnn/fw/fw/while/fw/basic_lstm_cell/mul_2"
      }
    }
  }
  attr {
    key: "_output_shapes"
    value {
      list {
        shape {
          dim {
            size: -1
          }
          dim {
            size: 1024
          }
        }
      }
    }
  }
}
node {
  name: "dynamic_seq2seq/encoder/bidirectional_rnn/fw/fw/while/TensorArrayWrite/TensorArrayWriteV3/Enter"
  op: "Enter"
  input: "dynamic_seq2seq/encoder/bidirectional_rnn/fw/fw/TensorArray"
  device: "/device:GPU:0"
  attr {
    key: "T"
    value {
      type: DT_RESOURCE
    }
  }
  attr {
    key: "_class"
    value {
      list {
        s: "loc:@dynamic_seq2seq/encoder/bidirectional_rnn/fw/fw/while/fw/basic_lstm_cell/mul_2"
      }
    }
  }
  attr {
    key: "_output_shapes"
    value {
      list {
        shape {
          dim {
            size: 2
          }
        }
      }
    }
  }
  attr {
    key: "frame_name"
    value {
      s: "dynamic_seq2seq/encoder/bidirectional_rnn/fw/fw/while/while_context"
    }
  }
  attr {
    key: "is_constant"
    value {
      b: true
    }
  }
  attr {
    key: "parallel_iterations"
    value {
      i: 32
    }
  }
}
node {
  name: "dynamic_seq2seq/encoder/bidirectional_rnn/fw/fw/while/TensorArrayWrite/TensorArrayWriteV3"
  op: "TensorArrayWriteV3"
  input: "dynamic_seq2seq/encoder/bidirectional_rnn/fw/fw/while/TensorArrayWrite/TensorArrayWriteV3/Enter"
  input: "dynamic_seq2seq/encoder/bidirectional_rnn/fw/fw/while/Identity"
  input: "dynamic_seq2seq/encoder/bidirectional_rnn/fw/fw/while/Select"
  input: "dynamic_seq2seq/encoder/bidirectional_rnn/fw/fw/while/Identity_1"
  device: "/device:GPU:0"
  attr {
    key: "T"
    value {
      type: DT_FLOAT
    }
  }
  attr {
    key: "_class"
    value {
      list {
        s: "loc:@dynamic_seq2seq/encoder/bidirectional_rnn/fw/fw/while/fw/basic_lstm_cell/mul_2"
      }
    }
  }
  attr {
    key: "_output_shapes"
    value {
      list {
        shape {
        }
      }
    }
  }
}
node {
  name: "dynamic_seq2seq/encoder/bidirectional_rnn/fw/fw/while/add/y"
  op: "Const"
  input: "^dynamic_seq2seq/encoder/bidirectional_rnn/fw/fw/while/Identity"
  attr {
    key: "_output_shapes"
    value {
      list {
        shape {
        }
      }
    }
  }
  attr {
    key: "dtype"
    value {
      type: DT_INT32
    }
  }
  attr {
    key: "value"
    value {
      tensor {
        dtype: DT_INT32
        tensor_shape {
        }
        int_val: 1
      }
    }
  }
}
node {
  name: "dynamic_seq2seq/encoder/bidirectional_rnn/fw/fw/while/add"
  op: "Add"
  input: "dynamic_seq2seq/encoder/bidirectional_rnn/fw/fw/while/Identity"
  input: "dynamic_seq2seq/encoder/bidirectional_rnn/fw/fw/while/add/y"
  attr {
    key: "T"
    value {
      type: DT_INT32
    }
  }
  attr {
    key: "_output_shapes"
    value {
      list {
        shape {
        }
      }
    }
  }
}
node {
  name: "dynamic_seq2seq/encoder/bidirectional_rnn/fw/fw/while/NextIteration"
  op: "NextIteration"
  input: "dynamic_seq2seq/encoder/bidirectional_rnn/fw/fw/while/add"
  attr {
    key: "T"
    value {
      type: DT_INT32
    }
  }
  attr {
    key: "_output_shapes"
    value {
      list {
        shape {
        }
      }
    }
  }
}
node {
  name: "dynamic_seq2seq/encoder/bidirectional_rnn/fw/fw/while/NextIteration_1"
  op: "NextIteration"
  input: "dynamic_seq2seq/encoder/bidirectional_rnn/fw/fw/while/TensorArrayWrite/TensorArrayWriteV3"
  attr {
    key: "T"
    value {
      type: DT_FLOAT
    }
  }
  attr {
    key: "_output_shapes"
    value {
      list {
        shape {
        }
      }
    }
  }
}
node {
  name: "dynamic_seq2seq/encoder/bidirectional_rnn/fw/fw/while/NextIteration_2"
  op: "NextIteration"
  input: "dynamic_seq2seq/encoder/bidirectional_rnn/fw/fw/while/Select_1"
  attr {
    key: "T"
    value {
      type: DT_FLOAT
    }
  }
  attr {
    key: "_output_shapes"
    value {
      list {
        shape {
          dim {
            size: -1
          }
          dim {
            size: 1024
          }
        }
      }
    }
  }
}
node {
  name: "dynamic_seq2seq/encoder/bidirectional_rnn/fw/fw/while/NextIteration_3"
  op: "NextIteration"
  input: "dynamic_seq2seq/encoder/bidirectional_rnn/fw/fw/while/Select_2"
  attr {
    key: "T"
    value {
      type: DT_FLOAT
    }
  }
  attr {
    key: "_output_shapes"
    value {
      list {
        shape {
          dim {
            size: -1
          }
          dim {
            size: 1024
          }
        }
      }
    }
  }
}
node {
  name: "dynamic_seq2seq/encoder/bidirectional_rnn/fw/fw/while/Exit"
  op: "Exit"
  input: "dynamic_seq2seq/encoder/bidirectional_rnn/fw/fw/while/Switch"
  attr {
    key: "T"
    value {
      type: DT_INT32
    }
  }
  attr {
    key: "_output_shapes"
    value {
      list {
        shape {
        }
      }
    }
  }
}
node {
  name: "dynamic_seq2seq/encoder/bidirectional_rnn/fw/fw/while/Exit_1"
  op: "Exit"
  input: "dynamic_seq2seq/encoder/bidirectional_rnn/fw/fw/while/Switch_1"
  attr {
    key: "T"
    value {
      type: DT_FLOAT
    }
  }
  attr {
    key: "_output_shapes"
    value {
      list {
        shape {
        }
      }
    }
  }
}
node {
  name: "dynamic_seq2seq/encoder/bidirectional_rnn/fw/fw/while/Exit_2"
  op: "Exit"
  input: "dynamic_seq2seq/encoder/bidirectional_rnn/fw/fw/while/Switch_2"
  attr {
    key: "T"
    value {
      type: DT_FLOAT
    }
  }
  attr {
    key: "_output_shapes"
    value {
      list {
        shape {
          dim {
            size: -1
          }
          dim {
…
}
node {
  name: "save/RestoreV2_10/tensor_names"
  op: "Const"
  attr {
    key: "_output_shapes"
    value {
      list {
        shape {
          dim {
            size: 1
          }
        }
      }
    }
  }
  attr {
    key: "dtype"
    value {
      type: DT_STRING
    }
  }
  attr {
    key: "value"
    value {
      tensor {
        dtype: DT_STRING
        tensor_shape {
          dim {
            size: 1
          }
        }
        string_val: "dynamic_seq2seq/decoder/output_projection/kernel"
      }
    }
  }
}
node {
  name: "save/RestoreV2_10/shape_and_slices"
  op: "Const"
  attr {
    key: "_output_shapes"
    value {
      list {
        shape {
          dim {
            size: 1
          }
        }
      }
    }
  }
  attr {
    key: "dtype"
    value {
      type: DT_STRING
    }
  }
  attr {
    key: "value"
    value {
      tensor {
        dtype: DT_STRING
        tensor_shape {
          dim {
            size: 1
          }
        }
        string_val: ""
      }
    }
  }
}
node {
  name: "save/RestoreV2_10"
  op: "RestoreV2"
  input: "save/Const"
  input: "save/RestoreV2_10/tensor_names"
  input: "save/RestoreV2_10/shape_and_slices"
  attr {
    key: "_output_shapes"
    value {
      list {
        shape {
          unknown_rank: true
        }
      }
    }
  }
  attr {
    key: "dtypes"
    value {
      list {
        type: DT_FLOAT
      }
    }
  }
}
node {
  name: "save/Assign_10"
  op: "Assign"
  input: "dynamic_seq2seq/decoder/output_projection/kernel"
  input: "save/RestoreV2_10"
  attr {
    key: "T"
    value {
      type: DT_FLOAT
    }
  }
  attr {
    key: "_class"
    value {
      list {
        s: "loc:@dynamic_seq2seq/decoder/output_projection/kernel"
      }
    }
  }
  attr {
    key: "_output_shapes"
    value {
      list {
        shape {
          dim {
            size: 1024
          }
          dim {
            size: 36548
          }
        }
      }
    }
  }
  attr {
    key: "use_locking"
    value {
      b: true
    }
  }
  attr {
    key: "validate_shape"
    value {
      b: true
    }
  }
}
node {
  name: "save/RestoreV2_11/tensor_names"
  op: "Const"
  device: "/device:CPU:0"
  attr {
    key: "_output_shapes"
    value {
      list {
        shape {
          dim {
            size: 1
          }
        }
      }
    }
  }
  attr {
    key: "dtype"
    value {
      type: DT_STRING
    }
  }
  attr {
    key: "value"
    value {
      tensor {
        dtype: DT_STRING
        tensor_shape {
          dim {
            size: 1
          }
        }
        string_val: "dynamic_seq2seq/encoder/bidirectional_rnn/bw/basic_lstm_cell/bias"
      }
    }
  }
}
node {
  name: "save/RestoreV2_11/shape_and_slices"
  op: "Const"
  device: "/device:CPU:0"
  attr {
    key: "_output_shapes"
    value {
      list {
        shape {
          dim {
            size: 1
          }
        }
      }
    }
  }
  attr {
    key: "dtype"
    value {
      type: DT_STRING
    }
  }
  attr {
    key: "value"
    value {
      tensor {
        dtype: DT_STRING
        tensor_shape {
          dim {
            size: 1
          }
        }
        string_val: ""
      }
    }
  }
}
node {
  name: "save/RestoreV2_11"
  op: "RestoreV2"
  input: "save/Const"
  input: "save/RestoreV2_11/tensor_names"
  input: "save/RestoreV2_11/shape_and_slices"
  device: "/device:CPU:0"
  attr {
    key: "_output_shapes"
    value {
      list {
        shape {
          unknown_rank: true
        }
      }
    }
  }
  attr {
    key: "dtypes"
    value {
      list {
        type: DT_FLOAT
      }
    }
  }
}
node {
  name: "save/Assign_11"
  op: "Assign"
  input: "dynamic_seq2seq/encoder/bidirectional_rnn/bw/basic_lstm_cell/bias"
  input: "save/RestoreV2_11"
  device: "/device:GPU:0"
  attr {
    key: "T"
    value {
      type: DT_FLOAT
    }
  }
  attr {
    key: "_class"
    value {
      list {
        s: "loc:@dynamic_seq2seq/encoder/bidirectional_rnn/bw/basic_lstm_cell/bias"
      }
    }
  }
  attr {
    key: "_output_shapes"
    value {
      list {
        shape {
          dim {
            size: 4096
          }
        }
      }
    }
  }
  attr {
    key: "use_locking"
    value {
      b: true
    }
  }
  attr {
    key: "validate_shape"
    value {
      b: true
    }
  }
}
node {
  name: "save/RestoreV2_12/tensor_names"
  op: "Const"
  device: "/device:CPU:0"
  attr {
    key: "_output_shapes"
    value {
      list {
        shape {
          dim {
            size: 1
          }
        }
      }
    }
  }
  attr {
    key: "dtype"
    value {
      type: DT_STRING
    }
  }
  attr {
    key: "value"
    value {
      tensor {
        dtype: DT_STRING
        tensor_shape {
          dim {
            size: 1
          }
        }
        string_val: "dynamic_seq2seq/encoder/bidirectional_rnn/bw/basic_lstm_cell/kernel"
      }
    }
  }
}
node {
  name: "save/RestoreV2_12/shape_and_slices"
  op: "Const"
  device: "/device:CPU:0"
  attr {
    key: "_output_shapes"
    value {
      list {
        shape {
          dim {
            size: 1
          }
        }
      }
    }
  }
  attr {
    key: "dtype"
    value {
      type: DT_STRING
    }
  }
  attr {
    key: "value"
    value {
      tensor {
        dtype: DT_STRING
        tensor_shape {
          dim {
            size: 1
          }
        }
        string_val: ""
      }
    }
  }
}
node {
  name: "save/RestoreV2_12"
  op: "RestoreV2"
  input: "save/Const"
  input: "save/RestoreV2_12/tensor_names"
  input: "save/RestoreV2_12/shape_and_slices"
  device: "/device:CPU:0"
  attr {
    key: "_output_shapes"
    value {
      list {
        shape {
          unknown_rank: true
        }
      }
    }
  }
  attr {
    key: "dtypes"
    value {
      list {
        type: DT_FLOAT
      }
    }
  }
}
node {
  name: "save/Assign_12"
  op: "Assign"
  input: "dynamic_seq2seq/encoder/bidirectional_rnn/bw/basic_lstm_cell/kernel"
  input: "save/RestoreV2_12"
  device: "/device:GPU:0"
  attr {
    key: "T"
    value {
      type: DT_FLOAT
    }
  }
  attr {
    key: "_class"
    value {
      list {
        s: "loc:@dynamic_seq2seq/encoder/bidirectional_rnn/bw/basic_lstm_cell/kernel"
      }
    }
  }
  attr {
    key: "_output_shapes"
    value {
      list {
        shape {
          dim {
            size: 2048
          }
          dim {
            size: 4096
          }
        }
      }
    }
  }
  attr {
    key: "use_locking"
    value {
      b: true
    }
  }
  attr {
    key: "validate_shape"
    value {
      b: true
    }
  }
}
node {
  name: "save/RestoreV2_13/tensor_names"
  op: "Const"
  device: "/device:CPU:0"
  attr {
    key: "_output_shapes"
    value {
      list {
        shape {
          dim {
            size: 1
          }
        }
      }
    }
  }
  attr {
    key: "dtype"
    value {
      type: DT_STRING
    }
  }
  attr {
    key: "value"
    value {
      tensor {
        dtype: DT_STRING
        tensor_shape {
          dim {
            size: 1
          }
        }
        string_val: "dynamic_seq2seq/encoder/bidirectional_rnn/fw/basic_lstm_cell/bias"
      }
    }
  }
}
node {
  name: "save/RestoreV2_13/shape_and_slices"
  op: "Const"
  device: "/device:CPU:0"
  attr {
    key: "_output_shapes"
    value {
      list {
        shape {
          dim {
            size: 1
          }
        }
      }
    }
  }
  attr {
    key: "dtype"
    value {
      type: DT_STRING
    }
  }
  attr {
    key: "value"
    value {
      tensor {
        dtype: DT_STRING
        tensor_shape {
          dim {
            size: 1
          }
        }
        string_val: ""
      }
    }
  }
}
node {
  name: "save/RestoreV2_13"
  op: "RestoreV2"
  input: "save/Const"
  input: "save/RestoreV2_13/tensor_names"
  input: "save/RestoreV2_13/shape_and_slices"
  device: "/device:CPU:0"
  attr {
    key: "_output_shapes"
    value {
      list {
        shape {
          unknown_rank: true
        }
      }
    }
  }
  attr {
    key: "dtypes"
    value {
      list {
        type: DT_FLOAT
      }
    }
  }
}
node {
  name: "save/Assign_13"
  op: "Assign"
  input: "dynamic_seq2seq/encoder/bidirectional_rnn/fw/basic_lstm_cell/bias"
  input: "save/RestoreV2_13"
  device: "/device:GPU:0"
  attr {
    key: "T"
    value {
      type: DT_FLOAT
    }
  }
  attr {
    key: "_class"
    value {
      list {
        s: "loc:@dynamic_seq2seq/encoder/bidirectional_rnn/fw/basic_lstm_cell/bias"
      }
    }
  }
  attr {
    key: "_output_shapes"
    value {
      list {
        shape {
          dim {
            size: 4096
          }
        }
      }
    }
  }
  attr {
    key: "use_locking"
    value {
      b: true
    }
  }
  attr {
    key: "validate_shape"
    value {
      b: true
    }
  }
}
node {
  name: "save/RestoreV2_14/tensor_names"
  op: "Const"
  device: "/device:CPU:0"
  attr {
    key: "_output_shapes"
    value {
      list {
        shape {
          dim {
            size: 1
          }
        }
      }
    }
  }
  attr {
    key: "dtype"
    value {
      type: DT_STRING
    }
  }
  attr {
    key: "value"
    value {
      tensor {
        dtype: DT_STRING
        tensor_shape {
          dim {
            size: 1
          }
        }
        string_val: "dynamic_seq2seq/encoder/bidirectional_rnn/fw/basic_lstm_cell/kernel"
      }
    }
  }
}
node {
  name: "save/RestoreV2_14/shape_and_slices"
  op: "Const"
  device: "/device:CPU:0"
  attr {
    key: "_output_shapes"
    value {
      list {
        shape {
          dim {
            size: 1
          }
        }
      }
    }
  }
  attr {
    key: "dtype"
    value {
      type: DT_STRING
    }
  }
  attr {
    key: "value"
    value {
      tensor {
        dtype: DT_STRING
        tensor_shape {
          dim {
            size: 1
          }
        }
        string_val: ""
      }
    }
  }
}
node {
  name: "save/RestoreV2_14"
  op: "RestoreV2"
  input: "save/Const"
  input: "save/RestoreV2_14/tensor_names"
  input: "save/RestoreV2_14/shape_and_slices"
  device: "/device:CPU:0"
  attr {
    key: "_output_shapes"
    value {
      list {
        shape {
          unknown_rank: true
        }
      }
    }
  }
  attr {
    key: "dtypes"
    value {
      list {
        type: DT_FLOAT
      }
    }
  }
}
node {
  name: "save/Assign_14"
  op: "Assign"
  input: "dynamic_seq2seq/encoder/bidirectional_rnn/fw/basic_lstm_cell/kernel"
  input: "save/RestoreV2_14"
  device: "/device:GPU:0"
  attr {
    key: "T"
    value {
      type: DT_FLOAT
    }
  }
  attr {
    key: "_class"
    value {
      list {
        s: "loc:@dynamic_seq2seq/encoder/bidirectional_rnn/fw/basic_lstm_cell/kernel"
      }
    }
  }
  attr {
    key: "_output_shapes"
    value {
      list {
        shape {
          dim {
            size: 2048
          }
          dim {
            size: 4096
          }
        }
      }
    }
  }
  attr {
    key: "use_locking"
    value {
      b: true
    }
  }
  attr {
    key: "validate_shape"
    value {
      b: true
    }
  }
}
node {
  name: "save/RestoreV2_15/tensor_names"
  op: "Const"
  device: "/device:CPU:0"
  attr {
    key: "_output_shapes"
    value {
      list {
        shape {
          dim {
            size: 1
          }
        }
      }
    }
  }
  attr {
    key: "dtype"
    value {
      type: DT_STRING
    }
  }
  attr {
    key: "value"
    value {
      tensor {
        dtype: DT_STRING
        tensor_shape {
          dim {
            size: 1
          }
        }
        string_val: "dynamic_seq2seq/encoder/rnn/basic_lstm_cell/bias"
      }
    }
  }
}
node {
  name: "save/RestoreV2_15/shape_and_slices"
  op: "Const"
  device: "/device:CPU:0"
  attr {
    key: "_output_shapes"
    value {
      list {
        shape {
          dim {
            size: 1
          }
        }
      }
    }
  }
  attr {
    key: "dtype"
    value {
      type: DT_STRING
    }
  }
  attr {
    key: "value"
    value {
      tensor {
        dtype: DT_STRING
        tensor_shape {
          dim {
            size: 1
          }
        }
        string_val: ""
      }
    }
  }
}
node {
  name: "save/RestoreV2_15"
  op: "RestoreV2"
  input: "save/Const"
  input: "save/RestoreV2_15/tensor_names"
  input: "save/RestoreV2_15/shape_and_slices"
  device: "/device:CPU:0"
  attr {
    key: "_output_shapes"
    value {
      list {
        shape {
          unknown_rank: true
        }
      }
    }
  }
  attr {
    key: "dtypes"
    value {
      list {
        type: DT_FLOAT
      }
    }
  }
}
node {
  name: "save/Assign_15"
  op: "Assign"
  input: "dynamic_seq2seq/encoder/rnn/basic_lstm_cell/bias"
  input: "save/RestoreV2_15"
  device: "/device:GPU:0"
  attr {
    key: "T"
    value {
      type: DT_FLOAT
    }
  }
  attr {
    key: "_class"
    value {
      list {
        s: "loc:@dynamic_seq2seq/encoder/rnn/basic_lstm_cell/bias"
      }
    }
  }
  attr {
    key: "_output_shapes"
    value {
      list {
        shape {
          dim {
            size: 4096
          }
        }
      }
    }
  }
  attr {
    key: "use_locking"
    value {
      b: true
    }
  }
  attr {
    key: "validate_shape"
    value {
      b: true
    }
  }
}
node {
  name: "save/RestoreV2_16/tensor_names"
  op: "Const"
  device: "/device:CPU:0"
  attr {
    key: "_output_shapes"
    value {
      list {
        shape {
          dim {
            size: 1
          }
        }
      }
    }
  }
  attr {
    key: "dtype"
    value {
      type: DT_STRING
    }
  }
  attr {
    key: "value"
    value {
      tensor {
        dtype: DT_STRING
        tensor_shape {
          dim {
            size: 1
          }
        }
        string_val: "dynamic_seq2seq/encoder/rnn/basic_lstm_cell/kernel"
      }
    }
  }
}
node {
  name: "save/RestoreV2_16/shape_and_slices"
  op: "Const"
  device: "/device:CPU:0"
  attr {
    key: "_output_shapes"
    value {
      list {
        shape {
          dim {
            size: 1
          }
        }
      }
    }
  }
  attr {
    key: "dtype"
    value {
      type: DT_STRING
    }
  }
  attr {
    key: "value"
    value {
      tensor {
        dtype: DT_STRING
        tensor_shape {
          dim {
            size: 1
          }
        }
        string_val: ""
      }
    }
  }
}
node {
  name: "save/RestoreV2_16"
  op: "RestoreV2"
  input: "save/Const"
  input: "save/RestoreV2_16/tensor_names"
  input: "save/RestoreV2_16/shape_and_slices"
  device: "/device:CPU:0"
  attr {
    key: "_output_shapes"
    value {
      list {
        shape {
          unknown_rank: true
        }
      }
    }
  }
  attr {
    key: "dtypes"
    value {
      list {
        type: DT_FLOAT
      }
    }
  }
}
node {
  name: "save/Assign_16"
  op: "Assign"
  input: "dynamic_seq2seq/encoder/rnn/basic_lstm_cell/kernel"
  input: "save/RestoreV2_16"
  device: "/device:GPU:0"
  attr {
    key: "T"
    value {
      type: DT_FLOAT
    }
  }
  attr {
    key: "_class"
    value {
      list {
        s: "loc:@dynamic_seq2seq/encoder/rnn/basic_lstm_cell/kernel"
      }
    }
  }
  attr {
    key: "_output_shapes"
    value {
      list {
        shape {
          dim {
            size: 3072
          }
          dim {
            size: 4096
          }
        }
      }
    }
  }
  attr {
    key: "use_locking"
    value {
      b: true
    }
  }
  attr {
    key: "validate_shape"
    value {
      b: true
    }
  }
}
node {
  name: "save/RestoreV2_17/tensor_names"
  op: "Const"
  device: "/device:CPU:0"
  attr {
    key: "_output_shapes"
    value {
      list {
        shape {
          dim {
            size: 1
          }
        }
      }
    }
  }
  attr {
    key: "dtype"
    value {
      type: DT_STRING
    }
  }
  attr {
    key: "value"
    value {
      tensor {
        dtype: DT_STRING
        tensor_shape {
          dim {
            size: 1
          }
        }
        string_val: "embeddings/decoder/embedding_decoder"
      }
    }
  }
}
node {
  name: "save/RestoreV2_17/shape_and_slices"
  op: "Const"
  device: "/device:CPU:0"
  attr {
    key: "_output_shapes"
    value {
      list {
        shape {
          dim {
            size: 1
          }
        }
      }
    }
  }
  attr {
    key: "dtype"
    value {
      type: DT_STRING
    }
  }
  attr {
    key: "value"
    value {
      tensor {
        dtype: DT_STRING
        tensor_shape {
          dim {
            size: 1
          }
        }
        string_val: ""
      }
    }
  }
}
node {
  name: "save/RestoreV2_17"
  op: "RestoreV2"
  input: "save/Const"
  input: "save/RestoreV2_17/tensor_names"
  input: "save/RestoreV2_17/shape_and_slices"
  device: "/device:CPU:0"
  attr {
    key: "_output_shapes"
    value {
      list {
        shape {
          unknown_rank: true
        }
      }
    }
  }
  attr {
    key: "dtypes"
    value {
      list {
        type: DT_FLOAT
      }
    }
  }
}
node {
  name: "save/Assign_17"
  op: "Assign"
  input: "embeddings/decoder/embedding_decoder"
  input: "save/RestoreV2_17"
  device: "/device:GPU:0"
  attr {
    key: "T"
    value {
      type: DT_FLOAT
    }
  }
  attr {
    key: "_class"
    value {
      list {
        s: "loc:@embeddings/decoder/embedding_decoder"
      }
    }
  }
  attr {
    key: "_output_shapes"
    value {
      list {
        shape {
          dim {
            size: 36548
          }
          dim {
            size: 1024
          }
        }
      }
    }
  }
  attr {
    key: "use_locking"
    value {
      b: true
    }
  }
  attr {
    key: "validate_shape"
    value {
      b: true
    }
  }
}
node {
  name: "save/RestoreV2_18/tensor_names"
  op: "Const"
  device: "/device:CPU:0"
  attr {
    key: "_output_shapes"
    value {
      list {
        shape {
          dim {
            size: 1
          }
        }
      }
    }
  }
  attr {
    key: "dtype"
    value {
      type: DT_STRING
    }
  }
  attr {
    key: "value"
    value {
      tensor {
        dtype: DT_STRING
        tensor_shape {
          dim {
            size: 1
          }
        }
        string_val: "embeddings/encoder/embedding_encoder"
      }
    }
  }
}
node {
  name: "save/RestoreV2_18/shape_and_slices"
  op: "Const"
  device: "/device:CPU:0"
  attr {
    key: "_output_shapes"
    value {
      list {
        shape {
          dim {
            size: 1
          }
        }
      }
    }
  }
  attr {
    key: "dtype"
    value {
      type: DT_STRING
    }
  }
  attr {
    key: "value"
    value {
      tensor {
        dtype: DT_STRING
        tensor_shape {
          dim {
            size: 1
          }
        }
        string_val: ""
      }
    }
  }
}
node {
  name: "save/RestoreV2_18"
  op: "RestoreV2"
  input: "save/Const"
  input: "save/RestoreV2_18/tensor_names"
  input: "save/RestoreV2_18/shape_and_slices"
  device: "/device:CPU:0"
  attr {
    key: "_output_shapes"
    value {
      list {
        shape {
          unknown_rank: true
        }
      }
    }
  }
  attr {
    key: "dtypes"
    value {
      list {
        type: DT_FLOAT
      }
    }
  }
}
node {
  name: "save/Assign_18"
  op: "Assign"
  input: "embeddings/encoder/embedding_encoder"
  input: "save/RestoreV2_18"
  device: "/device:GPU:0"
  attr {
    key: "T"
    value {
      type: DT_FLOAT
    }
  }
  attr {
    key: "_class"
    value {
      list {
        s: "loc:@embeddings/encoder/embedding_encoder"
      }
    }
  }
  attr {
    key: "_output_shapes"
    value {
      list {
        shape {
          dim {
            size: 36548
          }
          dim {
            size: 1024
          }
        }
      }
    }
  }
  attr {
    key: "use_locking"
    value {
      b: true
    }
  }
  attr {
    key: "validate_shape"
    value {
      b: true
    }
  }
}
node {
  name: "save/restore_all/NoOp"
  op: "NoOp"
  input: "^save/Assign"
  input: "^save/Assign_1"
  input: "^save/Assign_2"
  input: "^save/Assign_3"
  input: "^save/Assign_4"
  input: "^save/Assign_5"
  input: "^save/Assign_10"
}
node {
  name: "save/restore_all/NoOp_1"
  op: "NoOp"
  input: "^save/Assign_6"
  input: "^save/Assign_7"
  input: "^save/Assign_8"
  input: "^save/Assign_9"
  input: "^save/Assign_11"
  input: "^save/Assign_12"
  input: "^save/Assign_13"
  input: "^save/Assign_14"
  input: "^save/Assign_15"
  input: "^save/Assign_16"
  input: "^save/Assign_17"
  input: "^save/Assign_18"
  device: "/device:GPU:0"
}
node {
  name: "save/restore_all"
  op: "NoOp"
  input: "^save/restore_all/NoOp"
  input: "^save/restore_all/NoOp_1"
}
node {
  name: "init/NoOp"
  op: "NoOp"
  input: "^dynamic_seq2seq/decoder/memory_layer/kernel/Assign"
  input: "^dynamic_seq2seq/decoder/multi_rnn_cell/cell_0_attention/attention/bahdanau_attention/query_layer/kernel/Assign"
  input: "^dynamic_seq2seq/decoder/multi_rnn_cell/cell_0_attention/attention/bahdanau_attention/attention_v/Assign"
  input: "^dynamic_seq2seq/decoder/multi_rnn_cell/cell_0_attention/attention/bahdanau_attention/attention_g/Assign"
  input: "^dynamic_seq2seq/decoder/multi_rnn_cell/cell_0_attention/attention/bahdanau_attention/attention_b/Assign"
  input: "^dynamic_seq2seq/decoder/output_projection/kernel/Assign"
  input: "^Variable/Assign"
}
node {
  name: "init/NoOp_1"
  op: "NoOp"
  input: "^embeddings/encoder/embedding_encoder/Assign"
  input: "^embeddings/decoder/embedding_decoder/Assign"
  input: "^dynamic_seq2seq/encoder/bidirectional_rnn/fw/basic_lstm_cell/kernel/Assign"
  input: "^dynamic_seq2seq/encoder/bidirectional_rnn/fw/basic_lstm_cell/bias/Assign"
  input: "^dynamic_seq2seq/encoder/bidirectional_rnn/bw/basic_lstm_cell/kernel/Assign"
  input: "^dynamic_seq2seq/encoder/bidirectional_rnn/bw/basic_lstm_cell/bias/Assign"
  input: "^dynamic_seq2seq/encoder/rnn/basic_lstm_cell/kernel/Assign"
  input: "^dynamic_seq2seq/encoder/rnn/basic_lstm_cell/bias/Assign"
  input: "^dynamic_seq2seq/decoder/multi_rnn_cell/cell_0_attention/attention/basic_lstm_cell/kernel/Assign"
  input: "^dynamic_seq2seq/decoder/multi_rnn_cell/cell_0_attention/attention/basic_lstm_cell/bias/Assign"
  input: "^dynamic_seq2seq/decoder/multi_rnn_cell/cell_1/basic_lstm_cell/kernel/Assign"
  input: "^dynamic_seq2seq/decoder/multi_rnn_cell/cell_1/basic_lstm_cell/bias/Assign"
  device: "/device:GPU:0"
}
node {
  name: "init"
  op: "NoOp"
  input: "^init/NoOp"
  input: "^init/NoOp_1"
}
node {
  name: "init_all_tables"
  op: "NoOp"
  input: "^string_to_index/hash_table/table_init"
  input: "^string_to_index_1/hash_table/table_init"
}
library {
  function {
    signature {
      name: "tf_predicate_39f0a7d6"
      input_arg {
        name: "arg0"
        type: DT_INT64
      }
      input_arg {
        name: "arg1"
        type: DT_STRING
      }
      input_arg {
        name: "arg2"
        type: DT_STRING
      }
      input_arg {
        name: "FloorMod/Placeholder"
        type: DT_INT64
      }
      input_arg {
        name: "Equal/Placeholder"
        type: DT_INT64
      }
      output_arg {
        name: "Equal"
        type: DT_BOOL
      }
      description: "A wrapper for Defun that facilitates shape inference."
    }
    node_def {
      name: "FloorMod"
      op: "FloorMod"
      input: "arg0"
      input: "FloorMod/Placeholder"
      attr {
        key: "T"
        value {
          type: DT_INT64
        }
      }
    }
    node_def {
      name: "Equal"
      op: "Equal"
      input: "FloorMod:z:0"
      input: "Equal/Placeholder"
      attr {
        key: "T"
        value {
          type: DT_INT64
        }
      }
    }
    ret {
      key: "Equal"
      value: "Equal:z:0"
    }
  }
  function {
    signature {
      name: "tf_map_func_cbf8b27c"
      input_arg {
        name: "arg0"
        type: DT_INT64
      }
      input_arg {
        name: "arg1"
        type: DT_STRING
      }
      input_arg {
        name: "arg2"
        type: DT_STRING
      }
      output_arg {
        name: "arg1"
        type: DT_STRING
      }
      output_arg {
        name: "arg2"
        type: DT_STRING
      }
      description: "A wrapper for Defun that facilitates shape inference."
    }
    ret {
      key: "arg1"
      value: "arg1"
    }
    ret {
      key: "arg2"
      value: "arg2"
    }
  }
  function {
    signature {
      name: "tf_map_func_fb472cfa"
      input_arg {
        name: "arg0"
        type: DT_STRING
      }
      input_arg {
        name: "arg1"
        type: DT_STRING
      }
      output_arg {
        name: "StringSplit_o1"
        type: DT_STRING
      }
      output_arg {
        name: "StringSplit_1_o1"
        type: DT_STRING
      }
      description: "A wrapper for Defun that facilitates shape inference."
    }
    node_def {
      name: "Const"
      op: "Const"
      attr {
        key: "dtype"
        value {
          type: DT_STRING
        }
      }
      attr {
        key: "value"
        value {
          tensor {
            dtype: DT_STRING
            tensor_shape {
            }
            string_val: " "
          }
        }
      }
    }
    node_def {
      name: "packed"
      op: "Pack"
      input: "arg0"
      attr {
        key: "N"
        value {
          i: 1
        }
      }
      attr {
        key: "T"
        value {
          type: DT_STRING
        }
      }
      attr {
        key: "axis"
        value {
          i: 0
        }
      }
    }
    node_def {
      name: "StringSplit"
      op: "StringSplit"
      input: "packed:output:0"
      input: "Const:output:0"
      attr {
        key: "skip_empty"
        value {
          b: true
        }
      }
    }
    node_def {
      name: "Const_1"
      op: "Const"
      attr {
        key: "dtype"
        value {
          type: DT_STRING
        }
      }
      attr {
        key: "value"
        value {
          tensor {
            dtype: DT_STRING
            tensor_shape {
            }
            string_val: " "
          }
        }
      }
    }
    node_def {
      name: "packed_1"
      op: "Pack"
      input: "arg1"
      attr {
        key: "N"
        value {
          i: 1
        }
      }
      attr {
        key: "T"
        value {
          type: DT_STRING
        }
      }
      attr {
        key: "axis"
        value {
          i: 0
        }
      }
    }
    node_def {
      name: "StringSplit_1"
      op: "StringSplit"
      input: "packed_1:output:0"
      input: "Const_1:output:0"
      attr {
        key: "skip_empty"
        value {
          b: true
        }
      }
    }
    ret {
      key: "StringSplit_1_o1"
      value: "StringSplit_1:values:0"
    }
    ret {
      key: "StringSplit_o1"
      value: "StringSplit:values:0"
    }
  }
  function {
    signature {
      name: "tf_predicate_b289a3db"
      input_arg {
        name: "arg0"
        type: DT_STRING
      }
      input_arg {
        name: "arg1"
        type: DT_STRING
      }
      output_arg {
        name: "LogicalAnd"
        type: DT_BOOL
      }
      description: "A wrapper for Defun that facilitates shape inference."
    }
    node_def {
      name: "Size"
      op: "Size"
      input: "arg0"
      attr {
        key: "T"
        value {
          type: DT_STRING
        }
      }
      attr {
        key: "out_type"
        value {
          type: DT_INT32
        }
      }
    }
    node_def {
      name: "Greater/y"
      op: "Const"
      attr {
        key: "dtype"
        value {
          type: DT_INT32
        }
      }
      attr {
        key: "value"
        value {
          tensor {
            dtype: DT_INT32
            tensor_shape {
            }
            int_val: 0
          }
        }
      }
    }
    node_def {
      name: "Greater"
      op: "Greater"
      input: "Size:output:0"
      input: "Greater/y:output:0"
      attr {
        key: "T"
        value {
          type: DT_INT32
        }
      }
    }
    node_def {
      name: "Size_1"
      op: "Size"
      input: "arg1"
      attr {
        key: "T"
        value {
          type: DT_STRING
        }
      }
      attr {
        key: "out_type"
        value {
          type: DT_INT32
        }
      }
    }
    node_def {
      name: "Greater_1/y"
      op: "Const"
      attr {
        key: "dtype"
        value {
          type: DT_INT32
        }
      }
      attr {
        key: "value"
        value {
          tensor {
            dtype: DT_INT32
            tensor_shape {
            }
            int_val: 0
          }
        }
      }
    }
    node_def {
      name: "Greater_1"
      op: "Greater"
      input: "Size_1:output:0"
      input: "Greater_1/y:output:0"
      attr {
        key: "T"
        value {
          type: DT_INT32
        }
      }
    }
    node_def {
      name: "LogicalAnd"
      op: "LogicalAnd"
      input: "Greater:z:0"
      input: "Greater_1:z:0"
    }
    ret {
      key: "LogicalAnd"
      value: "LogicalAnd:z:0"
    }
  }
  function {
    signature {
      name: "tf_map_func_dfd7a2b6"
      input_arg {
        name: "arg0"
        type: DT_STRING
      }
      input_arg {
        name: "arg1"
        type: DT_STRING
      }
      output_arg {
        name: "strided_slice"
        type: DT_STRING
      }
      output_arg {
        name: "arg1"
        type: DT_STRING
      }
      description: "A wrapper for Defun that facilitates shape inference."
    }
    node_def {
      name: "strided_slice/stack"
      op: "Const"
      attr {
        key: "dtype"
        value {
          type: DT_INT32
        }
      }
      attr {
        key: "value"
        value {
          tensor {
            dtype: DT_INT32
            tensor_shape {
              dim {
                size: 1
              }
            }
            int_val: 0
          }
        }
      }
    }
    node_def {
      name: "strided_slice/stack_1"
      op: "Const"
      attr {
        key: "dtype"
        value {
          type: DT_INT32
        }
      }
      attr {
        key: "value"
        value {
          tensor {
            dtype: DT_INT32
            tensor_shape {
              dim {
                size: 1
              }
            }
            int_val: 50
          }
        }
      }
    }
    node_def {
      name: "strided_slice/stack_2"
      op: "Const"
      attr {
        key: "dtype"
        value {
          type: DT_INT32
        }
      }
      attr {
        key: "value"
        value {
          tensor {
            dtype: DT_INT32
            tensor_shape {
              dim {
                size: 1
              }
            }
            int_val: 1
          }
        }
      }
    }
    node_def {
      name: "strided_slice"
      op: "StridedSlice"
      input: "arg0"
      input: "strided_slice/stack:output:0"
      input: "strided_slice/stack_1:output:0"
      input: "strided_slice/stack_2:output:0"
      attr {
        key: "Index"
        value {
          type: DT_INT32
        }
      }
      attr {
        key: "T"
        value {
          type: DT_STRING
        }
      }
      attr {
        key: "begin_mask"
        value {
          i: 1
        }
      }
      attr {
        key: "ellipsis_mask"
        value {
          i: 0
        }
      }
      attr {
        key: "end_mask"
        value {
          i: 0
        }
      }
      attr {
        key: "new_axis_mask"
        value {
          i: 0
        }
      }
      attr {
        key: "shrink_axis_mask"
        value {
          i: 0
        }
      }
    }
    ret {
      key: "arg1"
      value: "arg1"
    }
    ret {
      key: "strided_slice"
      value: "strided_slice:output:0"
    }
  }
  function {
    signature {
      name: "tf_map_func_70652492"
      input_arg {
        name: "arg0"
        type: DT_STRING
      }
      input_arg {
        name: "arg1"
        type: DT_STRING
      }
      output_arg {
        name: "arg0"
        type: DT_STRING
      }
      output_arg {
        name: "strided_slice"
        type: DT_STRING
      }
      description: "A wrapper for Defun that facilitates shape inference."
    }
    node_def {
      name: "strided_slice/stack"
      op: "Const"
      attr {
        key: "dtype"
        value {
          type: DT_INT32
        }
      }
      attr {
        key: "value"
        value {
          tensor {
            dtype: DT_INT32
            tensor_shape {
              dim {
                size: 1
              }
            }
            int_val: 0
          }
        }
      }
    }
    node_def {
      name: "strided_slice/stack_1"
      op: "Const"
      attr {
        key: "dtype"
        value {
          type: DT_INT32
        }
      }
      attr {
        key: "value"
        value {
          tensor {
            dtype: DT_INT32
            tensor_shape {
              dim {
                size: 1
              }
            }
            int_val: 50
          }
        }
      }
    }
    node_def {
      name: "strided_slice/stack_2"
      op: "Const"
      attr {
        key: "dtype"
        value {
          type: DT_INT32
        }
      }
      attr {
        key: "value"
        value {
          tensor {
            dtype: DT_INT32
            tensor_shape {
              dim {
                size: 1
              }
            }
            int_val: 1
          }
        }
      }
    }
    node_def {
      name: "strided_slice"
      op: "StridedSlice"
      input: "arg1"
      input: "strided_slice/stack:output:0"
      input: "strided_slice/stack_1:output:0"
      input: "strided_slice/stack_2:output:0"
      attr {
        key: "Index"
        value {
          type: DT_INT32
        }
      }
      attr {
        key: "T"
        value {
          type: DT_STRING
        }
      }
      attr {
        key: "begin_mask"
        value {
          i: 1
        }
      }
      attr {
        key: "ellipsis_mask"
        value {
          i: 0
        }
      }
      attr {
        key: "end_mask"
        value {
          i: 0
        }
      }
      attr {
        key: "new_axis_mask"
        value {
          i: 0
        }
      }
      attr {
        key: "shrink_axis_mask"
        value {
          i: 0
        }
      }
    }
    ret {
      key: "arg0"
      value: "arg0"
    }
    ret {
      key: "strided_slice"
      value: "strided_slice:output:0"
    }
  }
  function {
    signature {
      name: "tf_map_func_4aca3265"
      input_arg {
        name: "arg0"
        type: DT_STRING
      }
      input_arg {
        name: "arg1"
        type: DT_STRING
      }
      input_arg {
        name: "hash_table_Lookup/Placeholder"
        type: DT_RESOURCE
      }
      input_arg {
        name: "hash_table_Lookup/Placeholder_1"
        type: DT_INT64
      }
      input_arg {
        name: "hash_table_Lookup_1/Placeholder"
        type: DT_RESOURCE
      }
      input_arg {
        name: "hash_table_Lookup_1/Placeholder_1"
        type: DT_INT64
      }
      output_arg {
        name: "Cast"
        type: DT_INT32
      }
      output_arg {
        name: "Cast_1"
        type: DT_INT32
      }
      description: "A wrapper for Defun that facilitates shape inference."
    }
    node_def {
      name: "hash_table_Lookup"
      op: "LookupTableFindV2"
      input: "hash_table_Lookup/Placeholder"
      input: "arg0"
      input: "hash_table_Lookup/Placeholder_1"
      attr {
        key: "Tin"
        value {
          type: DT_STRING
        }
      }
      attr {
        key: "Tout"
        value {
          type: DT_INT64
        }
      }
    }
    node_def {
      name: "Cast"
      op: "Cast"
      input: "hash_table_Lookup:values:0"
      attr {
        key: "DstT"
        value {
          type: DT_INT32
        }
      }
      attr {
        key: "SrcT"
        value {
          type: DT_INT64
        }
      }
    }
    node_def {
      name: "hash_table_Lookup_1"
      op: "LookupTableFindV2"
      input: "hash_table_Lookup_1/Placeholder"
      input: "arg1"
      input: "hash_table_Lookup_1/Placeholder_1"
      attr {
        key: "Tin"
        value {
          type: DT_STRING
        }
      }
      attr {
        key: "Tout"
        value {
          type: DT_INT64
        }
      }
    }
    node_def {
      name: "Cast_1"
      op: "Cast"
      input: "hash_table_Lookup_1:values:0"
      attr {
        key: "DstT"
        value {
          type: DT_INT32
        }
      }
      attr {
        key: "SrcT"
        value {
          type: DT_INT64
        }
      }
    }
    ret {
      key: "Cast"
      value: "Cast:y:0"
    }
    ret {
      key: "Cast_1"
      value: "Cast_1:y:0"
    }
  }
  function {
    signature {
      name: "tf_map_func_9a173887"
      input_arg {
        name: "arg0"
        type: DT_INT32
      }
      input_arg {
        name: "arg1"
        type: DT_INT32
      }
      input_arg {
        name: "concat/values_0/Placeholder"
        type: DT_INT32
      }
      input_arg {
        name: "concat_1/values_1/Placeholder"
        type: DT_INT32
      }
      output_arg {
        name: "arg0"
        type: DT_INT32
      }
      output_arg {
        name: "concat"
        type: DT_INT32
      }
      output_arg {
        name: "concat_1"
        type: DT_INT32
      }
      description: "A wrapper for Defun that facilitates shape inference."
    }
    node_def {
      name: "concat/values_0"
      op: "Pack"
      input: "concat/values_0/Placeholder"
      attr {
        key: "N"
        value {
          i: 1
        }
      }
      attr {
        key: "T"
        value {
          type: DT_INT32
        }
      }
      attr {
        key: "axis"
        value {
          i: 0
        }
      }
    }
    node_def {
      name: "concat/axis"
      op: "Const"
      attr {
        key: "dtype"
        value {
          type: DT_INT32
        }
      }
      attr {
        key: "value"
        value {
          tensor {
            dtype: DT_INT32
            tensor_shape {
            }
            int_val: 0
          }
        }
      }
    }
    node_def {
      name: "concat"
      op: "ConcatV2"
      input: "concat/values_0:output:0"
      input: "arg1"
      input: "concat/axis:output:0"
      attr {
        key: "N"
        value {
          i: 2
        }
      }
      attr {
        key: "T"
        value {
          type: DT_INT32
        }
      }
      attr {
        key: "Tidx"
        value {
          type: DT_INT32
        }
      }
    }
    node_def {
      name: "concat_1/values_1"
      op: "Pack"
      input: "concat_1/values_1/Placeholder"
      attr {
        key: "N"
        value {
          i: 1
        }
      }
      attr {
        key: "T"
        value {
          type: DT_INT32
        }
      }
      attr {
        key: "axis"
        value {
          i: 0
        }
      }
    }
    node_def {
      name: "concat_1/axis"
      op: "Const"
      attr {
        key: "dtype"
        value {
          type: DT_INT32
        }
      }
      attr {
        key: "value"
        value {
          tensor {
            dtype: DT_INT32
            tensor_shape {
            }
            int_val: 0
          }
        }
      }
    }
    node_def {
      name: "concat_1"
      op: "ConcatV2"
      input: "arg1"
      input: "concat_1/values_1:output:0"
      input: "concat_1/axis:output:0"
      attr {
        key: "N"
        value {
          i: 2
        }
      }
      attr {
        key: "T"
        value {
          type: DT_INT32
        }
      }
      attr {
        key: "Tidx"
        value {
          type: DT_INT32
        }
      }
    }
    ret {
      key: "arg0"
      value: "arg0"
    }
    ret {
      key: "concat"
      value: "concat:output:0"
    }
    ret {
      key: "concat_1"
      value: "concat_1:output:0"
    }
  }
  function {
    signature {
      name: "tf_map_func_bb312444"
      input_arg {
        name: "arg0"
        type: DT_INT32
      }
      input_arg {
        name: "arg1"
        type: DT_INT32
      }
      input_arg {
        name: "arg2"
        type: DT_INT32
      }
      output_arg {
        name: "arg0"
        type: DT_INT32
      }
      output_arg {
        name: "arg1"
        type: DT_INT32
      }
      output_arg {
        name: "arg2"
        type: DT_INT32
      }
      output_arg {
        name: "Size"
        type: DT_INT32
      }
      output_arg {
        name: "Size_1"
        type: DT_INT32
      }
      description: "A wrapper for Defun that facilitates shape inference."
    }
    node_def {
      name: "Size"
      op: "Size"
      input: "arg0"
      attr {
        key: "T"
        value {
          type: DT_INT32
        }
      }
      attr {
        key: "out_type"
        value {
          type: DT_INT32
        }
      }
    }
    node_def {
      name: "Size_1"
      op: "Size"
      input: "arg1"
      attr {
        key: "T"
        value {
          type: DT_INT32
        }
      }
      attr {
        key: "out_type"
        value {
          type: DT_INT32
        }
      }
    }
    ret {
      key: "Size"
      value: "Size:output:0"
    }
    ret {
      key: "Size_1"
      value: "Size_1:output:0"
    }
    ret {
      key: "arg0"
      value: "arg0"
    }
    ret {
      key: "arg1"
      value: "arg1"
    }
    ret {
      key: "arg2"
      value: "arg2"
    }
  }
  function {
    signature {
      name: "tf_key_func_6793a7e4"
      input_arg {
        name: "arg0"
        type: DT_INT32
      }
      input_arg {
        name: "arg1"
        type: DT_INT32
      }
      input_arg {
        name: "arg2"
        type: DT_INT32
      }
      input_arg {
        name: "arg3"
        type: DT_INT32
      }
      input_arg {
        name: "arg4"
        type: DT_INT32
      }
      output_arg {
        name: "ToInt64"
        type: DT_INT64
      }
      description: "A wrapper for Defun that facilitates shape inference."
    }
    node_def {
      name: "floordiv/y"
      op: "Const"
      attr {
        key: "dtype"
        value {
          type: DT_INT32
        }
      }
      attr {
        key: "value"
        value {
          tensor {
            dtype: DT_INT32
            tensor_shape {
            }
            int_val: 10
          }
        }
      }
    }
    node_def {
      name: "floordiv"
      op: "FloorDiv"
      input: "arg3"
      input: "floordiv/y:output:0"
      attr {
        key: "T"
        value {
          type: DT_INT32
        }
      }
    }
    node_def {
      name: "floordiv_1/y"
      op: "Const"
      attr {
        key: "dtype"
        value {
          type: DT_INT32
        }
      }
      attr {
        key: "value"
        value {
          tensor {
            dtype: DT_INT32
            tensor_shape {
            }
            int_val: 10
          }
        }
      }
    }
    node_def {
      name: "floordiv_1"
      op: "FloorDiv"
      input: "arg4"
      input: "floordiv_1/y:output:0"
      attr {
        key: "T"
        value {
          type: DT_INT32
        }
      }
    }
    node_def {
      name: "Maximum"
      op: "Maximum"
      input: "floordiv:z:0"
      input: "floordiv_1:z:0"
      attr {
        key: "T"
        value {
          type: DT_INT32
        }
      }
    }
    node_def {
      name: "Minimum/x"
      op: "Const"
      attr {
        key: "dtype"
        value {
          type: DT_INT32
        }
      }
      attr {
        key: "value"
        value {
          tensor {
            dtype: DT_INT32
            tensor_shape {
            }
            int_val: 5
          }
        }
      }
    }
    node_def {
      name: "Minimum"
      op: "Minimum"
      input: "Minimum/x:output:0"
      input: "Maximum:z:0"
      attr {
        key: "T"
        value {
          type: DT_INT32
        }
      }
    }
    node_def {
      name: "ToInt64"
      op: "Cast"
      input: "Minimum:z:0"
      attr {
        key: "DstT"
        value {
          type: DT_INT64
        }
      }
      attr {
        key: "SrcT"
        value {
          type: DT_INT32
        }
      }
    }
    ret {
      key: "ToInt64"
      value: "ToInt64:y:0"
    }
  }
  function {
    signature {
      name: "tf_reduce_func_da536246"
      input_arg {
        name: "key"
        type: DT_INT64
      }
      input_arg {
        name: "window_dataset_variant"
        type: DT_VARIANT
      }
      input_arg {
        name: "PaddedBatchDataset/Placeholder"
        type: DT_INT32
      }
      input_arg {
        name: "PaddedBatchDataset/Placeholder_1"
        type: DT_INT32
      }
      output_arg {
        name: "PaddedBatchDataset"
        type: DT_VARIANT
      }
      description: "A wrapper for Defun that facilitates shape inference."
    }
    node_def {
      name: "Const"
      op: "Const"
      attr {
        key: "dtype"
        value {
          type: DT_INT64
        }
      }
      attr {
        key: "value"
        value {
          tensor {
            dtype: DT_INT64
            tensor_shape {
              dim {
                size: 1
              }
            }
            int64_val: -1
          }
        }
      }
    }
    node_def {
      name: "Const_1"
      op: "Const"
      attr {
        key: "dtype"
        value {
          type: DT_INT64
        }
      }
      attr {
        key: "value"
        value {
          tensor {
            dtype: DT_INT64
            tensor_shape {
              dim {
                size: 1
              }
            }
            int64_val: -1
          }
        }
      }
    }
    node_def {
      name: "Const_2"
      op: "Const"
      attr {
        key: "dtype"
        value {
          type: DT_INT64
        }
      }
      attr {
        key: "value"
        value {
          tensor {
            dtype: DT_INT64
            tensor_shape {
              dim {
                size: 1
              }
            }
            int64_val: -1
          }
        }
      }
    }
    node_def {
      name: "Const_3"
      op: "Const"
      attr {
        key: "dtype"
        value {
          type: DT_INT64
        }
      }
      attr {
        key: "value"
        value {
          tensor {
            dtype: DT_INT64
            tensor_shape {
              dim {
              }
            }
          }
        }
      }
    }
    node_def {
      name: "Const_4"
      op: "Const"
      attr {
        key: "dtype"
        value {
          type: DT_INT64
        }
      }
      attr {
        key: "value"
        value {
          tensor {
            dtype: DT_INT64
            tensor_shape {
              dim {
              }
            }
          }
        }
      }
    }
    node_def {
      name: "padding_value"
      op: "Const"
      attr {
        key: "dtype"
        value {
          type: DT_INT32
        }
      }
      attr {
        key: "value"
        value {
          tensor {
            dtype: DT_INT32
            tensor_shape {
            }
            int_val: 0
          }
        }
      }
    }
    node_def {
      name: "padding_value_1"
      op: "Const"
      attr {
        key: "dtype"
        value {
          type: DT_INT32
        }
      }
      attr {
        key: "value"
        value {
          tensor {
            dtype: DT_INT32
            tensor_shape {
            }
            int_val: 0
          }
        }
      }
    }
    node_def {
      name: "PaddedBatchDataset/batch_size"
      op: "Const"
      attr {
        key: "dtype"
        value {
          type: DT_INT64
        }
      }
      attr {
        key: "value"
        value {
          tensor {
            dtype: DT_INT64
            tensor_shape {
            }
            int64_val: 128
          }
        }
      }
    }
    node_def {
      name: "PaddedBatchDataset"
      op: "PaddedBatchDataset"
      input: "window_dataset_variant"
      input: "PaddedBatchDataset/batch_size:output:0"
      input: "Const:output:0"
      input: "Const_1:output:0"
      input: "Const_2:output:0"
      input: "Const_3:output:0"
      input: "Const_4:output:0"
      input: "PaddedBatchDataset/Placeholder"
      input: "PaddedBatchDataset/Placeholder_1"
      input: "PaddedBatchDataset/Placeholder_1"
      input: "padding_value:output:0"
      input: "padding_value_1:output:0"
      attr {
        key: "N"
        value {
          i: 5
        }
      }
      attr {
        key: "Toutput_types"
        value {
          list {
            type: DT_INT32
            type: DT_INT32
            type: DT_INT32
            type: DT_INT32
            type: DT_INT32
          }
        }
      }
      attr {
        key: "output_shapes"
        value {
          list {
            shape {
              dim {
                size: -1
              }
              dim {
                size: -1
              }
            }
            shape {
              dim {
                size: -1
              }
              dim {
                size: -1
              }
            }
            shape {
              dim {
                size: -1
              }
              dim {
                size: -1
              }
            }
            shape {
              dim {
                size: -1
              }
            }
            shape {
              dim {
                size: -1
              }
            }
          }
        }
      }
    }
    ret {
      key: "PaddedBatchDataset"
      value: "PaddedBatchDataset:handle:0"
    }
  }
  function {
    signature {
      name: "tf_window_size_func_8e0addc6"
      input_arg {
        name: "key"
        type: DT_INT64
      }
      output_arg {
        name: "Const"
        type: DT_INT64
      }
    }
    node_def {
      name: "Const"
      op: "Const"
      attr {
        key: "dtype"
        value {
          type: DT_INT64
        }
      }
      attr {
        key: "value"
        value {
          tensor {
            dtype: DT_INT64
            tensor_shape {
            }
            int64_val: 128
          }
        }
      }
    }
    ret {
      key: "Const"
      value: "Const:output:0"
    }
  }
}
versions {
  producer: 24
  min_consumer: 12
}

